model3_custom_pytorch/models/model3_weights_loss=0.016517.pt (torch_old, 212667 bytes, 16 tensors)

en1.weight f4 [200, 4]
0.2009368 -0.3586687 0.3698737 -0.38000453 -0.116276674 0.24592048 -0.25835612 -0.59583765
0.08434506 0.29768348 -0.1869006 0.31991804 0.28459352 0.19717234 0.25526923 0.007504818
0.267124 0.35442877 -0.091566935 -0.12161736 -0.08469315 0.4853051 -0.0102942195 0.2460051
0.009587136 -0.22689687 -0.04118557 0.17240445 -0.7175908 -0.43816796 -0.3826163 0.08418673
0.24092335 0.1736907 0.47588286 -0.25571138 -0.10149418 0.3812035 -0.07708063 -0.32306
0.13305831 -0.15143386 0.36078426 -0.29208797 0.4421731 0.19502378 0.013312441 0.6404309
-0.32353303 -0.115914844 0.30027285 -0.62436724 0.47224048 0.19634175 -0.13296688 -0.14648421
-0.08736119 -0.13609481 0.05777511 -0.36181003 -0.3131402 -0.26340836 -0.3276945 -0.166061
-0.104454175 -0.062909655 -0.106902406 -0.3079244 0.21778095 0.40490302 0.0058957078 0.010681309
-0.38673955 -0.004146942 -0.26442367 -0.5072916 0.18136144 0.5450106 0.097938925 -0.32772195
0.28846994 -0.41320315 0.013668835 -0.29154846 -0.38872352 0.20314135 -0.12085602 0.33747455
0.115428 0.16403575 0.0070040324 0.53047395 0.13471974 -0.19926085 0.35069805 0.25461313
0.24924257 0.36835864 0.08574274 0.022997795 0.3286545 -0.4510723 -0.26287895 -0.46877357
-0.008332021 0.12502362 0.2961956 0.118641414 -0.3755275 0.45798647 0.23351565 0.49857688
-0.3686039 0.37596518 -0.40625045 0.22960353 0.36105043 -0.33919707 0.06948479 0.16340636
0.13198793 -0.15471663 -0.23489198 -0.32619312 0.110920556 -0.23958746 0.48017251 -0.33820996
-0.16316125 0.13404346 -0.4020355 0.016443614 -0.0073587797 0.06682739 -0.42825863 -0.005509226
-0.2787665 0.05920057 -0.23691458 0.25588828 -0.30433923 0.08941054 0.16717136 -0.26895565
-0.40364915 -0.6379442 -0.073327586 0.5330415 -0.29967013 0.3343708 -0.17899536 0.25251985
-0.2622376 0.2358195 0.13263066 0.58043253 0.22830842 -0.15387432 -0.055438537 -0.20204766
-0.15397327 -0.1044663 -0.1899439 -0.21066776 0.18484443 -0.16268016 0.38764453 0.35119924
0.10838798 -0.40107068 0.09660766 -0.12189627 -0.27042735 0.15415327 -0.18678337 0.4290529
0.43681467 -0.11013315 0.37385133 0.14889823 -0.35061926 0.052526236 0.46529293 -0.4333546
-0.18994756 0.46932402 -0.30468854 0.24379656 -0.098576136 -0.2947054 0.31306463 0.47566468
-0.25135827 0.10798254 0.3048229 0.26357535 -0.1476315 -0.41233963 -0.08749361 -0.3991192
0.33901536 0.23036869 0.1993003 0.11055334 -0.25076824 -0.3508561 0.44131666 0.4158551
-0.2998602 0.36296543 0.31526184 0.3096289 0.13835773 -0.25152433 -0.12250715 0.08804217
-0.30590582 -0.27393305 0.09567002 -0.06547907 0.11921891 -0.36385328 0.11591963 -0.004737046
0.27046183 -0.026470998 -0.3188586 -0.24680118 0.13456888 -0.16355 -0.16907029 -0.20356417
0.0850851 0.45505276 0.1114874 0.17845209 -0.40459454 0.09371719 0.2555232 -0.22179553
0.6674584 0.33790287 -0.0076008025 0.30921236 -0.02612781 -0.5305879 0.11303164 -0.23708622
0.09119036 -0.40257257 0.40447196 -0.16639931 0.13502936 0.3232811 0.049393415 0.23278743
00000000: 60c2 4d3e 6da3 b7be 1660 bd3e f48f c2be
00000010: 7722 eebd 94d2 7b3e 4147 84be d188 18bf
00000020: 1abd ac3d f869 983e df62 3fbe 4ccc a33e
00000030: 3eb6 913e 8ce7 493e a6b2 823e faea f53b
00000040: 7ac4 883e b077 b53e 7287 bbbd 8612 f9bd
00000050: 9a73 adbd e979 f83e 16a9 28bc c3e8 7b3e
00000060: 5d13 1d3c a757 68be 33b2 28bd cb8a 303e
00000070: 08b4 37bf 8d57 e0be 49e6 c3be 186a ac3d
00000080: 9cb4 763e fadb 313e eba6 f33e 9aec 82be
00000090: 2edc cfbd 1b2d c33e 73dc 9dbd 1f68 a5be
000000a0: 7040 083e 7a11 1bbe b7b8 b83e 8e8c 95be
000000b0: 8364 e23e 50b4 473e 6d1c 5a3c 48f3 233f
000000c0: 1fa6 a5be c364 edbd 5dbd 993e 88d6 1fbf
000000d0: 81c9 f13e d00d 493e 7828 08be f5ff 15be
000000e0: 6cea b2bd 705c 0bbe 98a5 6c3d 2a3f b9be
000000f0: ea53 a0be 76dd 86be 93c7 a7be e50b 2abe
00000100: 12ec d5bd c7d6 80bd a6ef dabd 44a8 9dbe
00000110: f801 5f3e 734f cf3e c830 c13b a800 2f3c
00000120: ba02 c6be 12e3 87bb 8a62 87be dddd 01bf
00000130: d0b6 393e d185 0b3f 3494 c83d 2ccb a7be
00000140: 55b2 933e 5d8f d3be 40f3 5f3c d745 95be
00000150: c506 c7be 4904 503e 5c83 f7bd 77c9 ac3e
00000160: 8465 ec3d fdf8 273e 1582 e53b 24cd 073f
00000170: f9f3 093e 090b 4cbe b28e b33e a75c 823e
00000180: 7239 7f3e 8199 bc3e e499 af3d df65 bc3c
00000190: 6745 a83e f3f2 e6be 1298 86be 1703 f0be
000001a0: 0783 08bc 3106 003e f3a6 973e 45fa f23d
000001b0: 2445 c0be 347d ea3e ba1e 6f3e 7845 ff3e
000001c0: a6b9 bcbe 827e c03e 0f00 d0be 301d 6b3e
000001d0: 9adb b83e 3dab adbe 0b4e 8e3d ff53 273e
000001e0: d827 073e 096e 1ebe 8687 70be c902 a7be
000001f0: 512a e33d 6a56 75be 2cd9 f53e db29 adbe
00000200: be13 27be b042 093e 99d7 cdbe c2b4 863c
00000210: eb21 f1bb ccdc 883d b744 dbbe bd86 b4bb
00000220: 7cba 8ebe 4c7c 723d bc99 72be ca03 833e
00000230: 5ad2 9bbe e01c b73d f82e 2b3e 8eb4 89be
00000240: 1aab cebe 5050 23bf c62c 96bd 6875 083f
00000250: 5d6e 99be a632 ab3e 8f4a 37be 484a 813e
00000260: 0244 86be ab7a 713e 55d0 073e 3a97 143f
00000270: afc9 693e 3b91 1dbe 8513 63bd 95e5 4ebe
00000280: 2bab 1dbe 6df2 d5bd a780 42be 4ab9 57be
00000290: dc47 3d3e a195 26be 5879 c63e 63d0 b33e
000002a0: 84fa dd3d 2359 cdbe 3dda c53d c0a4 f9bd
000002b0: 7475 8abe 5bda 1d3e 2444 3fbe d2ac db3e
000002c0: 2ca6 df3e 7d8d e1bd 7169 bf3e c778 183e
000002d0: 5e84 b3be c025 573d e03a ee3e a7e0 ddbe
000002e0: 9d81 42be 3d4b f03e 2300 9cbe cea5 793e
000002f0: 49e2 c9bd a0e3 96be 024a a03e 528a f33e
00000300: 08b2 80be f325 dd3d bf11 9c3e 59f3 863e
00000310: b62c 17be 2e1e d3be da2f b3bd 5a59 ccbe
00000320: 6c93 ad3e c5e5 6b3e 6115 4c3e ca69 e23d
00000330: b264 80be 69a3 b3be 42f4 e13e f6ea d43e
00000340: 4787 99be 9bd6 b93e 006a a13e ae87 9e3e
00000350: a6ad 0d3e ccc7 80be 07e5 fabd 744f b43d
00000360: b09f 9cbe f440 8cbe a5ee c33d e419 86bd
00000370: 0b29 f43d fa4a babe 4567 ed3d 3939 9bbb
00000380: f979 8a3e b5d9 d8bc 6f41 a3be 73b9 7cbe
00000390: 6dcc 093e a779 27be c320 2dbe 2073 50be
000003a0: 1941 ae3d adfc e83e 8253 e43d 25bc 363e
000003b0: 0427 cfbe ccee bf3d f0d3 823e 5e1e 63be
000003c0: 8ede 2a3f 9b01 ad3e 2710 f9bb 1551 9e3e
000003d0: fd09 d6bc 9cd4 07bf 227d e73d bbc6 72be
000003e0: 03c2 ba3d fe1d cebe f316 cf3e 9564 2abe
000003f0: 2345 0a3e 1a85 a53e c050 4a3d d45f 6e3e

en1.bias f4 [200]
0.5237081 -0.13092138 -0.6568343 0.5901293 0.1663043 0.52833664 -0.30143628 -0.28241366
0.029488474 0.45998195 0.30108103 -0.38119906 0.40986493 0.5159761 0.49050397 0.41265047
0.3586037 -0.40094894 0.32195297 0.00015248367 0.2608646 0.3508174 -0.5167967 -0.34624514
0.44586188 -0.33022732 -0.40881312 -0.38927552 0.41291377 0.57218015 0.06376232 -0.09992531
0.05361265 -0.35074553 -0.015340452 0.19026184 0.17290242 -0.5262763 0.06739624 -0.5128405
-0.25360683 -0.26169452 0.5174532 0.0077746776 -0.6296426 -0.18278423 0.6071956 -0.45399228
-0.075924434 0.3376693 0.54527706 0.25629908 -0.41481742 0.030680137 -0.457843 0.34910154
-0.09259514 0.11874121 0.13133407 -0.20931861 0.17543791 -0.42024148 -0.23431802 -0.66277134
-0.33110434 -0.60342354 -0.46815228 -0.06957641 -0.4471259 -0.6692616 -0.5713611 -0.5587767
-0.13812318 -0.2473968 -0.092541724 0.4953197 0.011157004 0.122628756 0.56874096 -0.236066
-0.32461923 -0.55098736 -0.23513523 -0.595904 -0.42249453 0.61011195 -0.5450317 0.27339235
-0.09900172 -0.04323667 0.06440585 0.50513124 -0.006027335 -0.5032104 0.5376265 -0.2505803
0.21743271 -0.4397508 -0.29937854 -0.2027638 0.012852413 0.37447715 0.17411819 -0.011411119
0.15125504 0.60389197 -0.30672678 0.25713068 -0.32547808 0.2746868 0.5232143 -0.43475688
0.33854544 -0.16645253 -0.55585724 0.08867873 -0.15831621 0.65063614 -0.5541919 0.38816026
-0.6710679 -0.5268093 -0.57491213 0.051601615 -0.58197016 -0.18360358 -0.30825254 0.49747157
0.015631778 -0.2844155 0.37167197 -0.08901566 -0.03659218 -0.24270013 0.5819839 0.5722792
-0.08204936 -0.13686877 -0.5798298 -0.5968519 -0.03184596 -0.44097012 -0.49020457 -0.21574539
-0.47217458 -0.08791509 -0.057353392 0.17324688 0.19232853 0.22524814 0.60227555 -0.41154987
0.016483331 0.24557213 -0.62496835 -0.08071654 -0.1314057 0.59155303 0.050612893 -0.071158886
-0.23275946 -0.1562919 0.494745 0.07066349 0.44610003 0.19021706 -0.101580516 0.46089458
0.11924367 0.13033953 0.59940535 0.4639774 -0.56564915 -0.17622052 -0.39061627 0.5005027
0.4610541 -0.48643336 -0.2767219 -0.6767071 0.35373378 0.15058312 -0.31392443 0.15972596
-0.2300736 -0.036446575 -0.42964986 0.32959467 0.4910121 0.32426414 0.38923633 0.46556816
0.43986556 0.121534236 0.18179189 0.54507536 0.3401593 0.24328153 0.2521967 -0.0920184
00000000: bc11 063f 4110 06be 4b26 28bf b712 173f
00000010: ad4b 2a3e 1241 073f db55 9abe 8698 90be
00000020: d091 f13c c182 eb3e 4b27 9a3e 862c c3be
00000030: d1d9 d13e 0217 043f 5623 fb3e ec46 d33e
00000040: e79a b73e 2e49 cdbe 05d7 a43e 06e4 1f39
00000050: 0b90 853e 579e b33e ca4c 04bf 0b47 b1be
00000060: 0248 e43e 8e13 a9be f44f d1be 1f4f c7be
00000070: 6f69 d33e 667a 123f d295 823d a4a5 ccbd
00000080: f098 5b3d eb94 b3be 8556 7bbc 00d4 423e
00000090: 550d 313e 0bba 06bf 0a07 8a3d 8449 03bf
000000a0: c1d8 81be d3fc 85be d077 043f b9c2 fe3b
000000b0: 4230 21bf ca2b 3bbe 2c71 1b3f ad71 e8be
000000c0: 457e 9bbd fee2 ac3e 4797 0b3f a239 833e
000000d0: f362 d4be e954 fb3c 666a eabe 70bd b23e
000000e0: 85a2 bdbd 972e f33d 707c 063e 9e57 56be
000000f0: ffa5 333e e429 d7be 10f1 6fbe 62ab 29bf
00000100: 8286 a9be f779 1abf a8b1 efbe 147e 8ebd
00000110: b0ed e4be ba54 2bbf b944 12bf fd0b 0fbf
00000120: 2a70 0dbe 9655 7dbe 8486 bdbd 8b9a fd3e
00000130: decb 363c c924 fb3d 0299 113f 49bb 71be
00000140: 7e34 a6be 820d 0dbf 4ac7 70be 2a8d 18bf
00000150: 3451 d8be 4c30 1c3f 3387 0bbf 15fa 8b3e
00000160: 6ac1 cabd ef18 31bd 37e7 833d 4850 013f
00000170: f380 c5bb 66d2 00bf e4a1 093f 104c 80be
00000180: aea6 5e3e 0427 e1be 2548 99be 50a1 4fbe
00000190: ed92 523c 78bb bf3e 0a4c 323e b4f5 3abc
000001a0: 9ae2 1a3e aa98 1a3f 4b0b 9dbe a2a6 833e
000001b0: 10a5 a6be c0a3 8c3e 5ff1 053f 7498 debe
000001c0: d455 ad3e 8872 2abe a94c 0ebf 329d b53d
000001d0: a51d 22be 1790 263f 85df 0dbf f1bc c63e
000001e0: 1bcb 2bbf f9dc 06bf 712d 13bf 375c 533d
000001f0: fffb 14bf 9402 3cbe 47d3 9dbe 98b4 fe3e
00000200: 370e 803c e99e 91be ca4b be3e d84d b6bd
00000210: afe1 15bd 6286 78be e6fc 143f e480 123f
00000220: 7f09 a8bd 5427 0cbe ba6f 14bf 49cb 18bf
00000230: e970 02bd d6c6 e1be 18fc fabe 5cec 5cbe
00000240: dec0 f1be d40c b4bd 64eb 6abd a167 313e
00000250: c5f1 443e 73a7 663e bb2e 1a3f aab6 d2be
00000260: 0d08 873c 4377 7b3e edfd 1fbf b74e a5bd
00000270: 378f 06be 0570 173f 774f 4f3d c0bb 91bd
00000280: 7f58 6ebe fc0a 20be 374f fd3e 05b8 903d
00000290: 3967 e43e 43c8 423e 7209 d0bd 60fa eb3e
000002a0: 0636 f43d ba77 053e a172 193f 728e ed3e
000002b0: 62ce 10bf 2773 34be dbfe c7be f220 003f
000002c0: 480f ec3e cb0d f9be 7eae 8dbe ad3c 2dbf
000002d0: 981c b53e 7632 1a3e b4ba a0be 348f 233e
000002e0: 6a98 6bbe 0149 15bd 11fb dbbe a2c0 a83e
000002f0: f065 fb3e f305 a63e fc49 c73e f35e ee3e
00000300: 0f36 e13e f1e6 f83d a727 3a3e 0f8a 0b3f
00000310: 5c29 ae3e cb1e 793e ed1f 813e 2574 bcbd

en2.weight f4 [100, 200]
0.14550355 -0.050910313 -0.17229192 -0.019860722 0.07139006 -0.032714766 0.0027482903 0.03415148
-0.01562276 0.023003839 0.056127585 -0.031015353 0.07976041 0.07966109 0.17057802 0.05655803
0.098209746 0.040800065 0.017138626 -0.0031829805 0.06954992 0.11423511 -0.1017065 0.023528771
-0.044158503 0.015417588 -0.012237827 -0.14084989 0.012436587 0.192764 0.07819005 0.003937449
-0.07006738 -0.07535063 -0.01965803 -0.07026042 0.02681962 -0.11364465 -0.06079582 -0.08216626
-0.07938137 -0.05473402 0.20126967 -0.023452437 -0.08102538 -0.012519973 0.046335462 0.015612299
0.040317837 0.123072214 0.041474372 0.02768373 -0.038947996 0.05127631 0.02373792 0.2073671
-0.016423566 0.07614793 -0.015392815 0.0358693 0.08242695 -0.018466208 0.06331309 -0.13467813
-0.075410195 -0.013673139 0.030723095 -0.111501105 -0.028661218 -0.2697911 0.00029628823 -0.091811605
0.03059186 0.020400975 -0.07203695 -0.0061954334 0.016611712 -0.031060925 0.13604175 -0.04736231
-0.18185392 -0.07346737 0.021447802 -0.086818025 -0.038703125 0.088471845 -0.15681826 -0.08122262
0.007969128 -0.06636865 -0.062751204 0.027701287 -0.008288586 0.024584442 0.21373092 0.0678619
0.010447163 -0.12677713 0.007997059 -0.03593717 0.0848699 0.047243927 0.08680108 -0.025636015
0.023251485 0.08634559 -0.07067003 -0.015297619 -0.14784835 0.076103196 0.20511535 -0.19485801
0.04593713 -0.030936906 -0.26044497 0.040014632 -0.10077774 0.028300969 -0.010324748 0.06605568
-0.058111284 -0.107525185 -0.019321574 -0.08919933 -0.17904675 -0.11696841 -0.0024937922 0.10463294
0.0926432 0.038107324 0.01042872 -0.0051861624 -0.11218403 -0.2497237 0.075289436 0.08440048
-0.04756035 -0.07968165 -0.0782608 -0.07638699 0.010961649 -0.00025305786 -0.06072264 0.04689538
-0.119905844 -0.016223865 -0.024136059 0.007975924 0.042375956 0.1338162 0.09641542 -0.005078895
0.0652003 0.06613188 0.020244213 0.030482989 -0.056718923 0.10664228 -0.007181208 0.0030887474
0.047343403 0.06616087 -0.018980997 0.059958264 0.109800294 0.02888645 0.0017339027 0.16590591
0.083585 0.03335477 0.041298445 0.09351368 -0.14949138 -0.04932756 0.018735435 -0.016400158
0.09611296 0.010585576 -0.09104468 -0.009386879 -0.030130055 0.07126152 -0.038041826 -0.017619148
-0.13530155 0.0025677767 -0.26507205 0.22420886 0.013719962 0.067692265 0.122273915 0.048445623
0.00941425 -0.015125894 0.043654498 0.17800194 0.02164622 0.12581018 -0.017818134 0.05608444
0.090281464 -0.038543507 -0.08910507 0.016017599 0.09604555 0.086451076 -0.009733638 -0.018434823
0.055498425 -0.030452993 -0.059904967 -0.054644216 0.053156562 0.06845069 0.07264332 0.041157935
0.010648052 -0.017859034 0.056033604 0.0829978 -0.0114415195 0.06747675 -0.015841002 0.016893348
-0.007918112 -0.0016263617 -0.009398283 -0.026225705 0.02380746 0.098362975 -0.031317394 -0.014889594
0.03970886 -0.007489532 0.004241561 0.015599175 -0.047542702 -0.043416105 0.0691137 -0.025345458
-0.032074083 -0.041480247 0.046085402 0.060608536 -0.09310681 0.027322602 0.13434106 0.026868364
-0.05585453 -0.02080091 0.016326565 -0.0035372227 -0.02702763 0.004614957 -0.028562153 -0.0036889
00000000: e2fe 143e 5587 50bd 4b6d 30be f4b2 a2bc
00000010: f434 923d ebff 05bd a91c 343b 6ce2 0b3d
00000020: 9bf6 7fbc 8c72 bc3c 0ae6 653d e913 febc
00000030: 6d59 a33d 5b25 a33d 01ac 2e3e 65a9 673d
00000040: 3122 c93d f81d 273d 4e66 8c3c 8d99 50bb
00000050: 3070 8e3d 19f4 e93d 7f4b d0bd 69bf c03c
00000060: 8cdf 34bd 0d9a 7c3c 2b81 48bc f43a 10be
00000070: d4c2 4b3c ed63 453e 1b22 a03d b705 813b
00000080: 7d7f 8fbd 6e51 9abd e009 a1bc b2e4 8fbd
00000090: d2b4 db3c 87be e8bd 0a05 79bd c946 a8bd
000000a0: b392 a2bd c830 60bd a319 4e3e 531f c0bc
000000b0: a2f0 a5bd 9320 4dbc 41ca 3d3d baca 7f3c
000000c0: 5124 253d 490d fc3d 08e1 293d fdc8 e23c
000000d0: ef87 1fbd 1c07 523d 0776 c23c 0b58 543e
000000e0: b78a 86bc 72f3 9b3d 2532 7cbc b0eb 123d
000000f0: 76cf a83d 7246 97bc 4baa 813d 10e9 09be
00000100: a970 9abd 4d05 60bc 00af fb3c b15a e4bd
00000110: eeca eabc 0f22 8abe 2257 9b39 b907 bcbd
00000120: c89b fa3c f21f a73c 1c88 93bd 1003 cbbb
00000130: 4915 883c 7b73 febc 874e 0b3e fbfe 41bd
00000140: ea37 3abe 0f76 96bd 4db3 af3c a6cd b1bd
00000150: 2b87 1ebd ba30 b53d f794 20be 0c58 a6bd
00000160: f290 023c 49ec 87bd b483 80bd cfed e23c
00000170: d9cc 07bc 5065 c93c 47dc 5a3e 2efb 8a3d
00000180: 942a 2b3c ddd1 01be 1906 033c db32 13bd
00000190: 45d0 ad3d d982 413d c4c4 b13d 9f02 d2bc
000001a0: e679 be3c f5d5 b03d 73bb 90bd dda2 7abc
000001b0: 8f65 17be fedb 9b3d c209 523e dc88 47be
000001c0: 9228 3c3d 656f fdbc 0b59 85be 62e6 233d
000001d0: 8f64 cebd 6fd7 e73c 2229 29bc 3348 873d
000001e0: 1906 6ebd 2a36 dcbd 4748 9ebc 23ae b6bd
000001f0: 0858 37be 228d efbd e46e 23bb cb49 d63d
00000200: b8bb bd3d 6d16 1c3d 39dd 2a3c aff0 a9bb
00000210: bec0 e5bd 92b7 7fbe 5931 9a3d 29da ac3d
00000220: a4ce 42bd 2230 a3bd 3347 a0bd c870 9cbd
00000230: 7d98 333c daac 84b9 4eb8 78bd 5f15 403d
00000240: 3291 f5bd e9e7 84bc fcb8 c5bc 73ad 023c
00000250: 6992 2d3d 1d07 093e 7375 c53d dc6c a6bb
00000260: bc87 853d 2770 873d 31d7 a53c 76b7 f93c
00000270: 1a52 68bd 4567 da3d 5750 ebbb 956c 4a3b
00000280: 28eb 413d 5a7f 873d 097e 9bbc cc96 753d
00000290: fade e03d 47a3 ec3c 1f44 e33a 3de3 293e
000002a0: 9d2e ab3d 039f 083d 8f28 293d 1a84 bf3d
000002b0: 4514 19be b20b 4abd 0e7b 993c a059 86bc
000002c0: dfd6 c43d 206f 2d3c a275 babd 6dcb 19bc
000002d0: 4ed3 f6bc 8ff1 913d bfd1 1bbd 0856 90bc
000002e0: 7d8c 0abe 2548 283b 86b7 87be 0297 653e
000002f0: b1c9 603c 3ea2 8a3d bf6a fa3d eb6e 463d
00000300: 3a3e 1a3c 99d2 77bc 0fcf 323d 2446 363e
00000310: 6a53 b13c 62d4 003e 56f7 91bc ccb8 653d
00000320: 7de5 b83d ccdf 1dbd b87c b6bd 5737 833c
00000330: 88b3 c43d 430d b13d d679 1fbc a004 97bc
00000340: 5152 633d 8e78 f9bc e95e 75bd 9dd2 5fbd
00000350: b2ba 593d e02f 8c3d 05c6 943d 3995 283d
00000360: 2b75 2e3c 1c4d 92bc 7e83 653d c0fa a93d
00000370: 3675 3bbc 4031 8a3d fdc4 81bc eb63 8a3c
00000380: f8ba 01bc a52b d5ba 42fb 19bc 4ad7 d6bc
00000390: dd07 c33c 8772 c93d ab46 00bd 7cf3 73bc
000003a0: c2a5 223d c06a f5bb cbfc 8a3b af93 7f3c
000003b0: 23bc 42bd 16d5 31bd 7c8b 8d3d 47a1 cfbc
000003c0: 1d60 03bd 31e7 29bd 0cc4 3c3d a840 783d
000003d0: c8ae bebd a6d3 df3c b490 093e 0b1b dc3c
000003e0: b8c7 64bd ac66 aabc 4abf 853c c0d0 67bb
000003f0: 0c69 ddbc 1139 973b 2dfb e9bc 79c1 71bb

en2.bias f4 [100]
0.054681346 -0.0014240236 -0.05120597 0.016443172 -0.023055166 -0.1615612 0.020575518 -0.0649904
0.01729777 0.0005174411 -0.07154203 0.07274423 0.019110467 -0.015164515 -0.07659223 0.0036890968
0.088663556 0.007283027 0.07996826 0.025395032 0.10720325 -0.022406992 -0.11405773 0.059040733
-0.061553523 0.004128276 -0.02013031 -0.046351995 -0.07348002 0.035007454 0.023961231 0.011087656
-0.029802602 0.02028794 0.089093715 0.057177503 0.07383351 -0.048745893 -0.027897209 -0.05237092
0.06979191 0.024243055 -0.076911226 -0.0024750775 -0.02729437 -0.058848914 -0.08768798 -0.0049940855
-0.10531769 -0.005188531 -0.03941797 -0.020291835 0.044369526 0.061978724 2.7539802e-05 -0.054899696
-0.12027466 0.08661967 0.029839473 -0.07262677 -0.0007191107 0.100193255 0.023313839 0.09244062
-0.11582659 -0.026595948 -0.10663208 -0.029207746 -0.03399564 -0.023900077 0.04144124 0.10901737
0.0026861734 0.023445578 -0.074263 0.028781356 -0.007730764 0.09163762 -0.00069209875 -0.078663185
0.059924055 0.11031933 0.010083799 -0.24209301 -0.099138066 -0.011550401 0.091946416 -0.047988247
0.024488328 -0.035919186 0.09125205 -0.08375852 -0.050238624 -0.012611472 -0.023653805 -0.063752234
-0.08172217 0.1592844 0.11952317 -0.04228094
00000000: 8cf9 5f3d 4ea6 baba 5abd 51bd d5b3 863c
00000010: 30de bcbc 4d70 25be fd8d a83c b019 85bd
00000020: 0eb4 8d3c e2a4 073a a184 92bd edfa 943d
00000030: 8e8d 9c3c 9674 78bc 63dc 9cbd c6c4 713b
00000040: 3d95 b53d 75a6 ee3b 66c6 a33d 3e09 d03c
00000050: 618d db3d de8e b7bc 1997 e9bd b2d4 713d
00000060: 8c1f 7cbd 7d46 873b 52e8 a4bc 97db 3dbd
00000070: b17c 96bd fa63 0f3d 584a c43c 00a9 353c
00000080: 9624 f4bc e532 a63c c476 b63d f532 6a3d
00000090: 0636 973d c6a9 47bd b088 e4bc e482 56bd
000000a0: 10ef 8e3d 5f99 c63c a283 9dbd e934 22bb
000000b0: 7198 dfbc 8f0b 71bd c195 b3bd 6da5 a3bb
000000c0: cdb0 d7bd 8d04 aabb bd74 21bd 103b a6bc
000000d0: d2bc 353d 67dd 7d3d 4605 e737 81de 60bd
000000e0: 9052 f6bd a765 b13d e971 f43c 58bd 94bd
000000f0: b482 3cba 1f32 cd3d aafc be3c 8251 bd3d
00000100: 7e36 edbd bfdf d9bc ec61 dabd 1545 efbc
00000110: 033f 0bbd 18ca c3bc 4abe 293d 8044 df3d
00000120: 830a 303b f110 c03c 3317 98bd e1c6 eb3c
00000130: 5952 fdbb 81ac bb3d f66d 35ba 2a1a a1bd
00000140: ed72 753d 1aef e13d 8536 253c 3be7 77be
00000150: e608 cbbd e53d 3dbc 674e bc3d 538f 44bd
00000160: bf9b c83c ff1f 13bd 5be2 ba3d 9689 abbd
00000170: 04c7 4dbd 59a0 4ebc a0c5 c1bc 8890 82bd
00000180: f45d a7bd 731b 233e 90c8 f43d c72e 2dbd

en3.weight f4 [50, 100]
0.041517932 -0.035327498 -0.20430596 0.1569268 -0.16069676 -0.0801018 -0.02978078 -0.118443474
0.058481496 -0.037981268 -0.052225593 0.14883803 0.018820904 0.08914406 -0.11488049 0.024325896
0.10403361 -0.0033467787 0.009490278 -0.087762184 0.19574106 -0.0066396813 -0.0586841 0.11543683
-0.14825301 -0.0222184 0.13430183 0.035734262 0.026520692 0.124208584 -0.12059682 -0.112285525
-0.07763662 -0.027308805 0.23691173 0.113270156 -0.047839325 0.024773898 -0.09036504 0.05685975
-0.06728187 0.045698974 -0.14193022 0.014020685 -0.1826514 -0.070855744 -0.22905937 -0.027125986
-0.119487576 0.0150748 -0.0043478482 -0.15340541 0.097723804 0.15341645 -0.03793563 0.012915504
-0.066790454 0.22329856 -0.054632764 0.0023520596 0.020952212 0.13511226 0.030895088 0.027471341
-0.155595 -0.13303675 0.06282271 0.1956534 -0.11643544 0.10934144 0.004760984 0.16833429
0.020284247 -0.062382672 -0.04759225 -0.015579513 -0.01851689 0.022937978 0.09123687 0.07801808
-0.06302907 0.09180341 0.024162706 -0.17363547 0.0045348057 0.12845346 0.06134992 -0.09739616
0.0029816781 -0.15248945 0.16753216 -0.101171605 -0.0808331 0.09984633 -0.19063158 -0.002512081
-0.028557273 0.13748586 0.19123504 -0.03219513 -0.11091442 0.06059015 0.0255557 0.038553003
-0.0066732205 0.0464311 0.042893063 0.04153664 -0.06553429 -0.070780054 0.042978346 -0.005779061
0.058712587 -0.08514977 -0.0070880624 -0.08982381 -0.0070196046 -0.038320113 0.010474002 0.122685164
-0.053647187 -0.060205065 0.02848505 -0.052178204 0.10468939 0.10191383 -0.09535881 0.08834615
-0.07170737 -0.042392973 0.100438476 -0.03370369 -0.07694282 -0.1077662 -0.062982835 0.02205369
0.027651334 -0.06736807 -0.055430505 0.063252114 0.04773959 -0.019116398 -0.07168835 0.018988501
-0.07847448 0.05458943 0.08440421 0.10452111 -0.030791242 -0.08783483 -0.014717578 -0.054959625
0.005329871 0.07095134 -0.00058496045 0.08465803 0.034622654 -0.12796578 -0.048537333 0.015691139
0.043276362 0.042632394 -0.032479748 0.03134089 -0.0705112 -0.09249311 0.07742052 0.064913005
0.10430587 0.011211368 -0.010997789 0.024221476 -0.06632772 -0.04186101 -0.031683177 0.015158574
-0.044142753 -0.008922325 -0.008892343 -0.006754218 -0.06352587 -0.06257864 -0.058949124 0.038381405
-0.06547003 -0.09418426 0.060196783 -0.028661093 -0.0036085478 -0.0020063797 -0.036426898 0.07775854
0.055151816 -0.075858034 -0.03464354 0.050745208 0.058181513 -0.03718336 -0.09074985 0.10945519
-0.078057334 -0.07034022 0.054606155 -0.00076997967 -0.0074031195 0.12574686 -0.010435986 -0.035864823
0.030367572 -0.022840012 0.04261801 -0.009700031 0.09368812 -0.078680694 -0.018529242 0.08907631
-0.0451774 0.0013827402 -0.015878927 0.031496152 0.10899011 -0.03165968 0.067467086 -0.06284182
-0.0032521584 -0.027042415 -0.012196029 0.022681221 0.032976594 0.020837286 -0.065175146 -0.02964426
0.032810967 0.029611684 -0.05411701 -0.00851819 -0.006718431 -0.018126912 -0.033340126 0.036236852
0.0879194 0.13304196 0.024335708 -0.10764137 0.091800265 0.09818898 -0.03534909 -0.019348431
0.112131186 -0.1240033 -0.06801107 0.006383849 -0.096774235 -0.0033701158 0.10261608 0.050603542
00000000: b50e 2a3d 91b3 10bd 9535 51be 6bb1 203e
00000010: b18d 24be 6a0c a4bd d3f6 f3bc 7e92 f2bd
00000020: 4b8a 6f3d 3f92 1bbd 81ea 55bd ff68 183e
00000030: 4c2e 9a3c 2991 b63d 7646 ebbd 1a47 c73c
00000040: 930f d53d a155 5bbb 1c7d 1b3c a9bc b3bd
00000050: 5870 483e af91 d9bb bd5e 70bd 256a ec3d
00000060: a3cf 17be 5d03 b6bc 6b86 093e 175e 123d
00000070: ec41 d93c 1261 fe3d 77fb f6bd f4f5 e5bd
00000080: f3ff 9ebd b7b6 dfbc fd98 723e 2ffa e73d
00000090: 2bf3 43bd a1f2 ca3c 4e11 b9bd c5e5 683d
000000a0: 14cb 89bd d92e 3b3d 2856 11be 04b7 653c
000000b0: f808 3bbe d11c 91bd 8a8e 6abe 5137 debc
000000c0: e7b5 f4bd 4bfc 763c 6578 8ebb 4f16 1dbe
000000d0: 6b23 c83d 3419 1d3e 6462 1bbd 8d9b 533c
000000e0: 6fc9 88bd 61a8 643e 9bc6 5fbd 0325 1a3b
000000f0: f9a3 ab3c de5a 0a3e b217 fd3c 940b e13c
00000100: 4c54 1fbe c93a 08be 31a9 803d 5d59 483e
00000110: b475 eebd 68ee df3d 0702 9c3b d35f 2c3e
00000120: 262b a63c f984 7fbd 17f0 42bd 3741 7fbc
00000130: bcb0 97bc 6de8 bb3c 65da ba3d f1c7 9f3d
00000140: 6315 81bd 6d03 bc3d def0 c53c 7fcd 31be
00000150: b598 943b 4e89 033e 0e4a 7b3d a377 c7bd
00000160: 4268 433b 3226 1cbe 8d8d 2b3e 0f33 cfbd
00000170: d38b a5bd 3c7c cc3d ed34 43be baa1 24bb
00000180: f1f0 e9bc 18c9 0c3e 1ed3 433e 0adf 03bd
00000190: 1927 e3bd 612d 783d 305a d13c c1e9 1d3d
000001a0: 08ab dabb 8a2e 3e3d a3b0 2f3d 5322 2a3d
000001b0: d836 86bd 22f5 90bd 100a 303d 475e bdbb
000001c0: 9c7c 703d 0163 aebd fa42 e8bb 8cf5 b7bd
000001d0: b604 e6bb 8df5 1cbd 269b 2b3c 5c42 fb3d
000001e0: 27bd 5bbd 9699 76bd 7b59 e93c d0b8 55bd
000001f0: 6467 d63d 33b8 d03d 7b4b c3bd d4ee b43d
00000200: 50db 92bd 41a4 2dbd b0b2 cd3d e10c 0abd
00000210: 3294 9dbd 87b4 dcbd 25fd 80bd f1a9 b43c
00000220: 0d85 e23c 45f8 89bd 190b 63bd 538a 813d
00000230: 978a 433d fe99 9cbc 57d1 92bd c68d 9b3c
00000240: 3ab7 a0bd 2b99 5f3d 1ddc ac3d 2a0f d63d
00000250: ea3d fcbc bfe2 b3bd ff21 71bc 581d 61bd
00000260: 33a6 ae3b f04e 913d 0858 19ba 3061 ad3d
00000270: 7cd0 0d3d 7609 03be 15cf 46bd b48a 803c
00000280: 8e42 313d 4e9f 2e3d 7c09 05bd 4e5f 003d
00000290: 2d68 90bd 076d bdbd a68e 9e3d 1cf1 843d
000002a0: 519e d53d e3af 373c 1230 34bc 1e6c c63c
000002b0: d4d6 87bd 7376 2bbd 38c6 01bd ab5b 783c
000002c0: 08cf 34bd f22e 12bc 31b1 11bc 7d52 ddbb
000002d0: da19 82bd 3b29 80bd a374 71bd d235 1d3d
000002e0: 2715 86bd ade3 c0bd e790 763d abca eabc
000002f0: 637d 6cbb 777d 03bb 5f34 15bd df3f 9f3d
00000300: dfe6 613d 755b 9bbd 62e6 0dbd 35da 4f3d
00000310: bd4f 6e3d 944d 18bd 0fdb b9bd 0b2a e03d
00000320: 86dc 9fbd 890e 90bd b4aa 5f3d 76d8 49ba
00000330: de95 f2bb c9c3 003e b3fb 2abc fee6 12bd
00000340: 6ac5 f83c fa1a bbbc 3990 2e3d e1ec 1ebc
00000350: 8fdf bf3d 5823 a1bd a3ca 97bc a46d b63d
00000360: f00b 39bd 103d b53a 8614 82bc 1c02 013d
00000370: 3536 df3d 95ad 01bd 2f2c 8a3d 36b3 80bd
00000380: 2a22 55bb 0e88 ddbc dad1 47bc f8cd b93c
00000390: 7712 073d f5b2 aa3c 8c7a 85bd 85d8 f2bc
000003a0: cb64 063d 3494 f23c cca9 5dbd e18f 0bbc
000003b0: 4926 dcbb e47e 94bc a88f 08bd 186d 143d
000003c0: 160f b43d 273c 083e ae5b c73c 1473 dcbd
000003d0: c701 bc3d 4e17 c93d 35ca 10bd 9a80 9ebc
000003e0: 09a5 e53d 71f5 fdbd 6349 8bbd 9b2f d13b
000003f0: 9231 c6bd 29dd 5cbb 6128 d23d a945 4f3d

en3.bias f4 [50]
0.054179337 -0.08238977 -0.08532077 -0.034134645 -0.010129131 0.031882755 0.03848139 0.059960183
0.03981691 -0.031223617 0.10930489 0.020334482 0.09116197 0.066915035 0.039533217 -0.034592833
0.05821608 0.07645843 -0.063208446 0.10066336 -0.09500281 -0.0086963745 0.09440423 -0.026355295
0.0732591 0.023764363 -0.07889237 0.017345259 -0.030584455 -0.04869691 -0.025204629 -0.02792727
-0.01860581 -0.010179513 -0.037500653 0.084971875 -0.041519232 -0.031529583 0.0370487 -0.023681587
-0.022733826 0.10105872 0.049423452 0.011073566 -0.008568855 0.06464976 -0.08535701 0.083817616
-0.1151323 -0.02566929
00000000: 27eb 5d3d f8bb a8bd a8bc aebd c5d0 0bbd
00000010: a8f4 25bc 7e97 023d a99e 1d3d cf98 753d
00000020: 0e17 233d acc8 ffbc 3edb df3d 8094 a63c
00000030: 20b3 ba3d c00a 893d 95ed 213d 37b1 0dbd
00000040: fc73 6e3d 3d96 9c3d 6e73 81bd 9728 ce3d
00000050: d590 c2bd 3d7b 0ebc 0157 c13d 0fe7 d7bc
00000060: de08 963d 7bad c23c 5392 a1bd a517 8e3c
00000070: 408c fabc 6976 47bd f079 cebc bbc7 e4bc
00000080: 366b 98bc f9c7 26bc 499a 19bd bc05 ae3d
00000090: 1210 2abd 2a25 01bd 61c0 173d e3ff c1bc
000000a0: 4a3c babc e0f7 ce3d 3f70 4a3d e76d 353c
000000b0: 6264 0cbc 1867 843d a8cf aebd 92a8 ab3d
000000c0: 7cca ebbd 6748 d2bc

en4.weight f4 [3, 50]
-0.12101491 0.013776844 -0.0054521896 0.030911442 0.056279287 0.07650825 -0.12331969 0.101912886
0.10206406 -0.111004665 -0.11802674 0.066288866 -0.13006933 0.06376753 -0.10600443 0.015580224
-0.0502224 -0.0005301858 0.09069526 -0.15795939 0.07232303 0.03011587 0.012168865 -0.030859316
0.059070468 -0.08748538 0.042652223 0.00093071576 0.0948681 -0.03761282 -0.14884461 -0.089462236
0.10074095 -0.11123702 -0.08820831 -0.11460634 -0.12865007 0.11549986 -0.108963236 0.08097554
0.014949353 -0.14750712 -0.0951473 0.057924923 0.063890085 -0.113840915 0.0065618777 -0.104837805
0.06634897 -0.01736363 0.09706567 0.02252181 -0.08718634 -0.037562292 0.088799186 -0.06392032
0.13104455 -0.12186659 0.11530677 0.082696706 -0.1158664 0.06838013 0.030442601 -0.085773334
-0.030246481 -0.04754947 0.0137087125 0.13658632 0.041023962 -0.13664289 -0.008494254 -0.1276122
-0.11409058 0.024509415 -0.14547674 0.022778789 -0.07969923 -0.0947282 0.13703161 -0.08446503
0.13852543 0.045858555 0.006264038 0.13532305 0.10627713 0.10272629 -0.084098704 0.06378898
-0.0026705153 -0.13718674 -0.0912654 0.10181222 0.058281116 -0.040285144 0.035634506 0.03725722
0.06331009 0.062813394 -0.092067435 0.09914261 -0.03817799 -0.10957539 0.00033432397 0.089035824
-0.12825261 0.16090368 0.01560387 -0.117225006 -0.110121325 -0.109568 -0.056387555 -0.05065735
0.023831358 -0.12982666 0.07208311 0.09086149 -0.14062937 0.16390654 -0.115917556 0.008011606
0.055464186 0.02465653 0.082004145 -0.0292132 -0.08187428 -0.040489215 -0.001972082 0.021839412
-0.17056812 -0.0819383 0.07215203 -0.10672049 -0.018639795 0.09396995 -0.11451269 -0.107545935
0.043727234 -0.081772186 0.07713986 0.10118433 0.10175255 -0.082527444 0.060253974 -0.109449945
-0.00863567 0.123787165 0.104378276 0.10018599 0.19571236 0.097252384
00000000: aad6 f7bd 46b8 613c 48a8 b2bb fe39 fd3c
00000010: 1c85 663d 5bb0 9c3d 098f fcbd b4b7 d03d
00000020: f606 d13d 6a56 e3bd 01b8 f1bd 75c2 873d
00000030: e530 05be 8d98 823d da18 d9bd 3244 7f3c
00000040: 01b6 4dbd 2bfc 0aba 70be b93d 1bc0 21be
00000050: 191e 943d 8fb5 f63c eb5f 473c adcc fcbc
00000060: e0f3 713d 892b b3bd 19b4 2e3d 47fb 733a
00000070: 354a c23d e60f 1abd b96a 18be fa37 b7bd
00000080: 4551 ce3d 3cd0 e3bd 8fa6 b4bd bbb6 eabd
00000090: d8bc 03be 318b ec3d 1e28 dfbd 81d6 a53d
000000a0: 22ee 743c 1b0c 17be 96dc c2bd af42 6d3d
000000b0: ced8 823d 6d25 e9bd 0505 d73b 34b5 d6bd
000000c0: f8e1 873d 2c3e 8ebc 5eca c63d a97f b83c
000000d0: c08e b2bd ebda 19bd 59dc b53d a8e8 82bd
000000e0: 8b30 063e 3195 f9bd f525 ec3d e45c a93d
000000f0: 5d4b edbd e20a 8c3d c362 f93c eea9 afbd
00000100: 78c7 f7bc 3cc3 42bd 829a 603c 49dd 0b3e
00000110: be08 283d 1dec 0bbe 7c2b 0bbc c6ac 02be
00000120: 52a8 e9bd f8c7 c83c dbf7 14be 959a ba3c
00000130: 5a39 a3bd dc00 c2bd 0452 0c3e 00fc acbd
00000140: 9cd9 0d3e 2ed6 3b3d 8f42 cd3b 2092 0a3e
00000150: d3a7 d93d 2962 d23d f13b acbd cca3 823d
00000160: d003 2fbb ae7a 0cbe 5be9 babd ed82 d03d
00000170: 2eb8 6e3d 0902 25bd 7df5 113d 079b 183d
00000180: b8a8 813d 4fa4 803d da8d bcbd 480b cb3d
00000190: 8660 1cbd 1069 e0bd 3448 af39 6a58 b63d
000001a0: a754 03be efc3 243e 60a7 7f3c aa13 f0bd
000001b0: 4a87 e1bd 3065 e0bd a3f6 66bd 157e 4fbd
000001c0: fb39 c33c 48f1 04be 4fa0 933d 9715 ba3d
000001d0: 2501 10be 1ed7 273e 2f66 edbd 1c43 033c
000001e0: 6a2e 633d 7efc c93c caf1 a73d 8550 efbc
000001f0: b4ad a7bd 05d8 25bd 0c3e 01bb 91e8 b23c
00000200: 69a9 2ebe 44cf a7bd 72c4 933d 4690 dabd
00000210: 7cb2 98bc 5173 c03d a185 eabd 0b41 dcbd
00000220: 541b 333d 2d78 a7bd 81fb 9d3d bb39 cf3d
00000230: a463 d03d 2604 a9bd dfcc 763d 4b27 e0bd
00000240: a07c 0dbc 2084 fd3d 47c4 d53d 502e cd3d
00000250: d268 483e 422c c73d

en4.bias f4 [3]
-0.110376075 0.11160648 0.010127106
00000000: da0c e2bd f091 e43d 29ec 253c

de1.weight f4 [50, 3]
-0.20079164 -0.50726855 -0.5141649 0.6591846 -0.30650938 0.14191689 -0.46279022 0.50187033
0.03861033 0.22710706 -0.3512351 -0.7488239 -0.35082698 0.12247439 0.56909 0.07281244
0.4562435 0.41277787 0.37489313 0.013343613 0.6653353 -0.4185285 -0.32555273 -0.19865458
0.5183605 0.37460205 0.42551237 0.038772605 0.38701257 -0.39322177 0.14258365 -0.6297723
0.3007395 0.16373892 0.13016064 0.5647432 0.6059758 -0.015079542 -0.16244735 -0.15733598
0.5713854 0.4568288 0.49583083 -0.114782445 -0.00611413 0.3850859 0.37922668 0.13529332
0.19246912 0.08498556 0.70042545 -0.46545646 -0.13130738 -0.0043024295 0.032425273 -0.062672175
0.016061926 -0.29082784 0.60438377 -0.20145759 -0.5586013 0.32226315 0.14628169 -0.22856894
-0.15454717 -0.14114533 0.15846711 0.3858958 0.11150899 0.13134027 -0.5708496 -0.39095113
-0.33554775 -0.6144365 0.22119406 0.46605724 -0.15827508 0.63820213 -0.6143083 0.5855205
-0.46259066 0.5402575 -0.34816727 -0.45457405 -0.0084001655 -0.33283642 0.5938832 -0.041281223
-0.48711857 -0.5423225 -0.1708962 -0.24087436 -0.73205364 -0.4290152 0.3182093 -0.30715472
-0.6948335 0.4507334 0.17160939 -0.29741803 -0.4686807 -0.7014109 0.6302684 0.32198203
0.72469723 -0.39326742 0.12885225 0.58928233 0.28210622 0.21905242 -0.6612651 0.08545046
0.3719024 -0.46192065 0.43828976 0.31252393 -0.1857178 0.36064214 0.49024957 0.2015596
-0.10621285 0.45882893 0.3812561 -0.13393308 0.19553085 -0.5259675 0.39204702 0.48303452
-0.4412049 0.2617874 -0.5390458 -0.28555492 -0.27969387 -0.26921496 -0.43516544 -0.48385128
-0.14386193 -0.34349796 -0.28166637 -0.3188663 -0.6977551 -0.64861685 0.3494087 0.36967814
-0.24378465 -0.16106421 0.51382375 -0.3020721 -0.29816064 0.40036052
00000000: 539c 4dbe 5adc 01bf 50a0 03bf 52c0 283f
00000010: ccee 9cbe a952 113e d7f2 ecbe 937a 003f
00000020: de25 1e3d c18e 683e 16d5 b3be ecb2 3fbf
00000030: 989f b3be dad3 fa3d e2af 113f b01e 953d
00000040: bf98 e93e 9f57 d33e fef1 bf3e 2b9f 5a3c
00000050: 6a53 2a3f 5e49 d6be d9ae a6be 1b6c 4bbe
00000060: 46b3 043f d7cb bf3e c2dc d93e 06d0 1e3d
00000070: 8326 c63e 5d54 c9be 7301 123e c238 21bf
00000080: 87fa 993e 2dab 273e d548 053e 0393 103f
00000090: 3b21 1b3f 2f10 77bc 9958 26be af1c 21be
000000a0: 5046 123f 77e5 e93e 8add fd3e 0f13 ebbd
000000b0: 0a59 c8bb fb29 c53e 002a c23e 558a 0a3e
000000c0: a016 453e e90c ae3d 154f 333f 4f50 eebe
000000d0: 7175 06be 65fb 8cbb 5dd0 043d 455a 80bd
000000e0: 4d94 833c 63e7 94be e5b8 1a3f e64a 4ebe
000000f0: 7f00 0fbf adff a43e deca 153e fa0d 6abe
00000100: 9d41 1ebe 6788 10be 3445 223e 2294 c53e
00000110: d35e e43d 107e 063e 3323 12bf bf2a c8be
00000120: eacc abbe b64b 1dbf b280 623e 0e9f ee3e
00000130: dd12 22be 3761 233f 4f43 1dbf ace4 153f
00000140: afd8 ecbe 514e 0a3f fb42 b2be eebd e8be
00000150: d9a0 09bc 8969 aabe bb08 183f 8016 29bd
00000160: 9b67 f9be a6d5 0abf 6aff 2ebe c5a7 76be
00000170: de67 3bbf e1a7 dbbe 54ec a23e 6243 9dbe
00000180: 9ce0 31bf 87c6 e63e 5fba 2f3e 2d47 98be
00000190: ebf6 efbe aa8f 33bf 4559 213f d4da a43e
000001a0: c285 393f 595a c9be d8f1 033e 35db 163f
000001b0: 3a70 903e 474f 603e ab48 29bf a700 af3d
000001c0: fe69 be3e dd80 ecbe 8467 e03e 2303 a03e
000001d0: cf2c 3ebe 16a6 b83e fe01 fb3e a465 4e3e
000001e0: 1f86 d9bd a0eb ea3e 0034 c33e c125 09be
000001f0: 3d39 483e cea5 06bf 63ba c83e 4d50 f73e
00000200: 9ce5 e1be 0009 863e e8fe 09bf 4134 92be
00000210: 0934 8fbe 8bd6 89be 01ce debe 5bbb f7be
00000220: 8b50 13be f7de afbe 9336 90be 7242 a3be
00000230: 14a0 32bf c10b 26bf b2e5 b23e 7446 bd3e
00000240: afa2 79be 04ee 24be f489 033f 32a9 9abe
00000250: 83a8 98be 0efc cc3e

de1.bias f4 [50]
0.13286752 -0.5307757 -0.5216134 0.059719026 -0.36425582 -0.1142185 -0.012919545 -0.40326315
-0.42020723 0.4114798 0.13724163 -0.3361225 0.3588112 -0.13539085 0.36217102 -0.008353032
-0.44362873 -0.34762827 0.5539179 -0.29601374 0.095211945 0.61814576 0.18749064 0.49579287
-0.27809364 0.27985382 -0.4346012 0.3667452 -0.13145345 0.10203331 -0.33843 -0.10259707
0.53662646 -0.46110153 -0.49511662 -0.51606417 0.056404307 0.117039576 0.35975465 -0.09078728
0.42307556 -0.4857998 -0.30193606 -0.19805309 0.21036796 -0.5548598 -0.49575058 0.15112431
0.17284249 -0.30259556
00000000: 6c0e 083e ebe0 07bf 7588 05bf f09b 743d
00000010: bd7f babe 64eb e9bd 80ac 53bc 8278 cebe
00000020: 6725 d7be 7bad d23e 1289 0c3e 4018 acbe
00000030: 1ab6 b73e e6a3 0abe 7b6e b93e 28db 08bc
00000040: 4e23 e3be 55fc b1be 90cd 0d3f 1d8f 97be
00000050: 7bfe c23d cd3e 1e3f 8cfd 3f3e 90d8 fd3e
00000060: 4a62 8ebe 0049 8f3e 0c84 debe 07c6 bb3e
00000070: bc9b 06be d7f6 d03d b246 adbe 6a1e d2bd
00000080: 5a60 093f 8015 ecbe ed7f fdbe c81c 04bf
00000090: 3408 673d 72b2 ef3d c331 b83e aeee b9bd
000000a0: 5c9d d83e c0ba f8be 5d97 9abe 6ece 4abe
000000b0: b36a 573e 4b0b 0ebf 05d3 fdbe 55c0 1a3e
000000c0: 9ffd 303e ceed 9abe

de2.weight f4 [100, 50]
0.113501914 -0.03394344 0.2180069 -0.016973069 0.09763627 -0.028652076 -0.04859732 0.14502186
-0.06665066 0.030378446 -0.21383883 -0.004143126 0.016238285 -0.11303444 -0.1342953 0.035761002
0.0019897663 0.20073862 -0.011639151 0.1616529 0.15363047 -0.103112586 0.09205679 0.081533946
0.00964549 -0.18817349 0.24510595 -0.12900141 -0.02824443 0.19587928 0.12697053 0.15143485
0.07267958 0.20751052 -0.12543613 -0.021227421 0.15590735 0.006018802 0.0120663475 -0.101674095
-0.11403373 0.13301252 -0.030189952 -0.065599695 0.17739157 0.06011414 0.16632833 0.11368729
-0.089554965 0.06404713 0.12601157 -0.01815362 -0.0043131406 0.20106463 -0.018663423 0.01559129
0.091795646 -0.07207475 -0.055796936 -0.10216999 -0.041403517 -0.09288823 0.12516041 -0.07057865
0.012118208 0.14688899 0.035430674 -0.12727563 -0.027443763 -0.06037244 -0.15426096 -0.08284431
-0.1505497 0.11578224 0.12805939 0.12560321 0.013026827 0.11986834 -0.07582037 -0.055933993
-0.047771607 -0.21512888 -0.22130126 -0.015740206 0.1200335 0.07929068 0.06394661 -0.09236209
0.14853881 -0.058246415 -0.15595172 0.10677808 -0.11531005 0.10238592 -0.05462418 0.090355545
0.118828446 -0.16911653 0.047930636 -0.06165181 -0.23290467 0.06974433 -0.01811323 0.059396066
0.09116953 0.18640879 0.23434845 -0.124042004 0.050613984 -0.18645945 0.04921259 0.22115444
0.15433416 -0.11251015 0.08040641 0.20023264 0.18439136 -0.1647322 -0.1296679 -0.21566322
-0.121623464 0.06431943 -0.02636369 -0.07807862 0.18562007 0.09074146 -0.17429493 0.04387606
0.27378163 -0.11242013 -0.080614924 -0.2732834 0.06773125 -0.03636758 0.054041006 0.17570108
-0.13328286 -0.30660555 -0.009789676 0.011607648 0.059166417 -0.11702862 -0.15386626 0.021499114
-0.16562743 0.009270337 0.058580726 -0.1701268 0.16581982 0.21059369 0.14651066 0.020437445
-0.29678714 0.19895934 -0.31041476 -0.053446367 -0.07460584 -0.24489424 0.11470805 -0.07384246
0.1930064 -0.15393202 0.41674536 0.012159946 0.33770636 -0.084317036 0.015963487 -0.38688916
0.17711632 -0.28944886 -0.038803812 0.04228439 0.030291935 0.034750775 -0.08757301 0.13508785
-0.12458891 0.08573844 -0.16361803 0.20568277 -0.042926934 0.02614411 -0.0721209 -0.11154776
-0.08357572 -0.26939312 0.08052889 0.034942657 0.2289614 0.06828818 -0.071067266 0.04224608
-0.08666921 0.14339638 0.008051069 -0.1491129 0.067848556 -0.1199344 -0.068469934 -0.23228404
0.029741755 -0.11946428 -0.06394153 0.07568407 -0.17697248 -0.039784677 0.13824308 -0.14222033
0.09505475 -0.024376813 0.04127336 -0.06030185 0.15440693 -0.09568475 0.07703087 0.123606086
-0.027133754 -0.15062875 0.1512771 -0.0902382 -0.0046877535 0.13485497 0.081934586 0.16445607
-0.15087041 -0.061277814 -0.10817555 -0.08916718 -0.10935347 0.08864735 0.018167967 0.106559895
0.0014788343 0.09103919 -0.14213774 -0.108617105 0.055271253 0.12801626 0.08150313 -0.045853607
-0.11227068 0.0050690062 -0.07245123 0.07112415 0.023710785 -0.08192023 -0.15584001 0.09613784
0.12187917 -0.16904546 -0.09802232 0.10545312 0.006779897 0.08650369 0.08527489 0.05848358
00000000: b173 e83d 4708 0bbd 333d 5f3e 1b0b 8bbc
00000010: 86f5 c73d c2b7 eabc fc0d 47bd 9c80 143e
00000020: 2480 88bd 38dc f83c 91f8 5abe 0fc3 87bb
00000030: 2706 853c 9a7e e7bd b584 09be 217a 123d
00000040: bd66 023b 6d8e 4d3e 23b2 3ebc 5688 253e
00000050: 4e51 1d3e b12c d3bd 4588 bc3d 45fb a63d
00000060: 1e08 1e3c 8db0 40be 0efd 7a3e f218 04be
00000070: dd60 e7bc 9494 483e 9004 023e bd11 1b3e
00000080: 08d9 943d a37d 543e 5472 00be 21e5 adbc
00000090: 2da6 1f3e 5f39 c53b eeb1 453c 823a d0bd
000000a0: 848a e9bd 6f34 083e eb50 f7bc 2259 86bd
000000b0: 23a6 353e 3f3a 763d f951 2a3e e2d4 e83d
000000c0: 9868 b7bd 242b 833d 2d09 013e e7b6 94bc
000000d0: 3f55 8dbb e3e3 4d3e 09e4 98bc 9c72 7f3c
000000e0: 5bff bb3d ed9b 93bd 548b 64bd 803e d1bd
000000f0: bc96 29bd 2f3c bebd 0d2a 003e 8a8b 90bd
00000100: 738b 463c 116a 163e c11f 113d 8b54 02be
00000110: bed1 e0bc 1749 77bd 96f6 1dbe 47aa a9bd
00000120: b329 1abe 3d1f ed3d 0022 033e 219e 003e
00000130: 796e 553c 887d f53d b647 9bbd 0b1b 65bd
00000140: 29ac 43bd bf4a 5cbe cc9c 62be 9bf1 80bc
00000150: 20d4 f53d 2763 a23d 71f6 823d 5628 bdbd
00000160: 8f1a 183e cb93 6ebd cfb1 1fbe 77ae da3d
00000170: ad27 ecbd b6af d13d 9bbd 5fbd 540c b93d
00000180: 545c f33d e22c 2dbe ea52 443d 9c86 7cbd
00000190: 907e 6ebe 1ed6 8e3d 3262 94bc 4a49 733d
000001a0: 17b7 ba3d f2e1 3e3e 0af9 6f3e bc09 febd
000001b0: 9c50 4f3d 3aef 3ebe 2493 493d 4f76 623e
000001c0: c609 1e3e b96b e6bd 1eac a43d c909 4d3e
000001d0: 17d1 3c3e 8faf 28be a9c7 04be d2d6 5cbe
000001e0: b915 f9bd e8b9 833d aaf8 d7bc afe7 9fbd
000001f0: 3013 3e3e a9d6 b93d 5f7a 32be 62b7 333d
00000200: 1b2d 8c3e 863c e6bd 7019 a5bd cdeb 8bbe
00000210: aeb6 8a3d 2cf6 14bd 1a5a 5d3d fcea 333e
00000220: 4d7b 08be 67fb 9cbe e164 20bc 012e 3e3c
00000230: 7c58 723d b3ac efbd 1e8f 1dbe e91e b03c
00000240: 3d9a 29be 9de2 173c 58f2 6f3d b835 2ebe
00000250: accc 293e dfa5 573e e406 163e 6e6c a73c
00000260: 7cf4 97be ffbb 4b3e afee 9ebe 94ea 5abd
00000270: f2ca 98bd 8ec5 7abe 0eec ea3d b73a 97bd
00000280: 78a3 453e 5ba0 1dbe a65f d53e 833a 473c
00000290: d9e7 ac3e 69ae acbd dcc5 823c 5616 c6be
000002a0: fb5d 353e a432 94be bff0 1ebd 6632 2d3d
000002b0: cb26 f83c d456 0e3d 7a59 b3bd 7854 0a3e
000002c0: 7828 ffbd a397 af3d 7c8b 27be 819e 523e
000002d0: 27d4 2fbd 2c2c d63c 1fb4 93bd 2773 e4bd
000002e0: bf29 abbd e5ed 89be 55ec a43d 0820 0f3d
000002f0: db74 6a3e acda 8b3d b78b 91bd 3a0a 2d3d
00000300: a07f b1bd 80d6 123e a2e8 033c 0db1 18be
00000310: 2ff4 8a3d 2ba0 f5bd f739 8cbd dedb 6dbe
00000320: fba4 f33c b0a9 f4bd c7f3 82bd 4000 9b3d
00000330: 4638 35be 42f5 22bd 988f 0d3e 35a2 11be
00000340: 11ac c23d e2b1 c7bc 410e 293d 13ff 76bd
00000350: da1c 1e3e 5ef6 c3bd 5cc2 9d3d 3025 fd3d
00000360: 9b47 debc 6c3e 1abe 62e8 1a3e cece b8bd
00000370: ba9b 99bb 6c17 0a3e 52cd a73d 2c67 283e
00000380: c67d 1abe 72fe 7abd 258b ddbd 489d b6bd
00000390: b6f4 dfbd be8c b53d fdd4 943c 133c da3d
000003a0: 72d5 c13a c172 ba3d 8e8c 11be a572 debd
000003b0: 1c64 623d b216 033e 1deb a63d fed0 3bbd
000003c0: 2cee e5bd e819 a63b 4f61 94bd 8aa9 913d
000003d0: 1f3d c23c cbc5 a7bd 8694 1fbe eae3 c43d
000003e0: c99b f93d 411a 2dbe edbf c8bd cef7 d73d
000003f0: e629 de3b d928 b13d 9aa4 ae3d 7a8c 6f3d

de2.bias f4 [100]
-0.0826195 -0.09154098 -0.064279884 0.11745926 -0.030660627 0.067554116 0.024965616 0.07287385
0.036032166 0.09994384 -0.12648144 -0.038958203 0.1300498 0.099486515 0.07053679 0.06687933
-0.123288885 -0.1515789 0.093951054 -0.12615356 0.06792381 0.019956546 -0.1390013 0.08265713
-0.1293833 -0.011646227 0.032019578 -0.06097998 0.06516453 0.10765447 0.10069693 0.047278818
-0.07396702 0.043091226 -0.060344193 -0.09078006 -0.06195046 -0.049311563 -0.06179504 0.022095801
0.17229033 0.07853681 0.034421418 -0.011015002 -0.06984338 -0.05246167 -0.13529006 -0.02497573
-0.09819512 -0.030421866 -0.12825051 0.13027596 -0.018516283 -0.101496994 0.009033373 -0.037150167
0.0008302974 0.025169894 -0.11190516 0.092725664 -0.004561151 -0.009490025 0.10230353 -0.11402075
0.16439044 0.09203558 -0.025183994 0.033229657 0.009821596 0.015230225 0.12835947 -0.10873202
-0.11365181 0.16609009 0.03356991 0.06788248 0.11561404 0.051325507 0.064399265 -0.15437928
-0.03334194 -0.098669745 -0.05086424 0.049001288 -0.12522608 0.0033073707 -0.013746418 0.007835552
0.05032416 -0.053749602 0.056130644 0.08883118 -0.0830909 -0.11565164 -0.0675765 -0.034629684
-0.035747956 -0.058554363 -0.091202155 -0.06572851
00000000: 6a34 a9bd d679 bbbd 2ca5 83bd 7b8e f03d
00000010: ff2b fbbc d059 8a3d b184 cc3c e33e 953d
00000020: 7796 133d 5baf cc3d 5a84 01be a392 1fbd
00000030: c62b 053e 96bf cb3d 9875 903d 08f8 883d
00000040: e27e fcbd 8037 1bbe 6969 c03d 662e 01be
00000050: a31b 8b3d e97b a33c 5b56 0ebe 2448 a93d
00000060: 0e7d 04be d1cf 3ebc f626 033d 25c6 79bd
00000070: fb74 853d f279 dc3d 313a ce3d 6fa7 413d
00000080: 057c 97bd 6d80 303d 792b 77bd e5ea b9bd
00000090: c4bf 7dbd ecfa 49bd cc1c 7dbd 4102 b53c
000000a0: e06c 303e e8d7 a03d 79fd 0c3d 4478 34bc
000000b0: 0c0a 8fbd 0ce2 56bd 7a89 0abe e799 ccbc
000000c0: 861a c9bd 4737 f9bc 1a54 03be 1067 053e
000000d0: 76af 97bc a8dd cfbd b600 143c c62a 18bd
000000e0: 51a8 593a 1831 ce3c 882e e5bd f4e6 bd3d
000000f0: b575 95bb 0d7c 1bbc 8384 d13d b683 e9bd
00000100: f855 283e 267d bc3d aa4e cebc d21b 083d
00000110: c2ea 203c 3288 793c aa70 033e e5ae debd
00000120: 48c2 e8bd 8513 2a3e 9a80 093d f805 8b3d
00000130: 0ec7 ec3d b23a 523d c3e3 833d 9a15 1ebe
00000140: 8f91 08bd 5d13 cabd 0557 50bd 93b5 483d
00000150: 443b 00be 79c0 583b a838 61bc b060 003c
00000160: b520 4e3d 8b28 5cbd 3fe9 653d 1fed b53d
00000170: 902b aabd c4da ecbd 8c65 8abd dbd7 0dbd
00000180: 736c 12bd b3d6 6fbd 32c8 babd ab9c 86bd
