model3_custom_pytorch/models/model3_weights_loss=0.012641.pt (torch_old, 212667 bytes, 16 tensors)

en1.weight f4 [200, 4]
000000 86 d8 92 3e a6 f5 00 3e 5b 4f bc be 43 23 a6 3e
       0.2868082 0.12593707 -0.36779293 0.32448778
000010 96 c0 98 be 40 ed a6 3e d4 4c cf be 71 fe 0d 3c
       -0.2983443 0.32602882 -0.40488303 0.008666621
000020 9c 66 30 bd e2 13 64 3e 6d 34 f7 3c 10 2c 2c 3f
       -0.043066606 0.2227321 0.030176366 0.67254734
000030 ff 80 54 be 6c f1 2c be 27 e7 b4 bd 0e 32 ae 3c
       -0.20752333 -0.1688897 -0.08833151 0.021264102
000040 ca 2c 00 bf 05 1a 92 3e 03 dc 4d 3e 7d 1d ee 3e
       -0.5006834 0.28535476 0.20103459 0.46506873
000050 68 f6 61 bd cb 0a c5 bc 85 eb 8e be 41 c6 bd be
       -0.055166632 -0.024052998 -0.27914062 -0.37065318
000060 a2 56 26 bc 8a 57 d4 be ad 70 8d be 4d 6d 3b be
       -0.010152491 -0.41473037 -0.27625027 -0.18303414
000070 1b 39 e9 be 44 d3 db 3e 57 31 2a be 9a 02 a6 be
       -0.4555138 0.4293462 -0.16620384 -0.3242386
000080 f3 6f 03 be fc e7 35 be 40 af 6c 3e ff 55 0f 3e
       -0.12835674 -0.17764276 0.23113728 0.13997649
000090 a9 fd 6f 3e d2 a4 70 be c6 41 d6 3e 9f 7c 48 bc
       0.23436607 -0.23500374 0.41847056 -0.012236743
0000a0 89 1c bf 3d d8 83 22 bf 6d 9a 5a be 8c 6f f9 bc
       0.093316145 -0.6348243 -0.21347971 -0.030448698
0000b0 97 7f 02 be 42 da 04 bd 1d e8 8a be eb e6 67 3e
       -0.12743984 -0.03243471 -0.27130213 0.22646682
0000c0 94 64 fc 3d d8 44 44 3e 1b a9 bf 3e 5e 5f 6d bd
       0.12323871 0.19166887 0.37433705 -0.057952277
0000d0 ad fa be bd f2 15 22 bf c1 c4 0e 3e be d3 9d 3e
       -0.09325156 -0.63314736 0.13942243 0.3082561
0000e0 07 05 80 be 3e 8d cf 3e e5 a3 0a be d3 0a bb 3e
       -0.25003836 0.40537447 -0.13539083 0.36531696
0000f0 a2 46 01 3e 28 3a 11 bd 06 ad 3f 3e 42 ce 28 bf
       0.126246 -0.035455853 0.18718347 -0.65939724
000100 d4 2f 58 3e 17 c4 ce be 58 3d 97 3e 65 5a 94 3d
       0.21111995 -0.4038398 0.2953899 0.07243804
000110 96 c7 04 be d3 66 6a 3e 62 37 5f 3e 52 8f e8 be
       -0.12966761 0.22890787 0.2179847 -0.45421845
000120 6c 22 08 3e 13 a9 fa 3e e3 d2 54 3e 4a 45 91 3e
       0.13294381 0.48957118 0.20783572 0.28373176
000130 72 6e aa bc ac 04 4f be 34 2b 96 3d 35 3f 8b 3e
       -0.020804618 -0.20216626 0.07332459 0.2719666
000140 95 f1 de be 9a ac c3 be 10 e8 6d 3d 46 25 6c bd
       -0.43543687 -0.38217622 0.05808264 -0.057652734
000150 2e 0a 63 3e ba 01 76 bd 26 97 8c be 77 a3 f9 3e
       0.22171852 -0.06006024 -0.27459067 0.48757526
000160 49 7a a1 bd 1b 1b e8 3e 3d 54 b7 be 8f 57 45 be
       -0.07884652 0.4533318 -0.35806456 -0.19271682
000170 ac 60 04 bf aa 2e f6 be 32 a2 e4 3d 1d e2 6b 3e
       -0.5171001 -0.48082477 0.11163749 0.23035474
000180 5b 5b 9f 3a 0b 58 65 be e2 22 cd 3d 74 bd 89 3e
       0.0012157963 -0.22396867 0.10016419 0.26902354
000190 7d 32 f4 be 11 ae ce 3d 06 2c 0f 3b 3a 6a f5 be
       -0.4769477 0.10091794 0.0021846308 -0.47932607
0001a0 86 01 f1 3d 08 35 6a be 48 86 8d bd 9c 3b 08 bf
       0.11767869 -0.22871792 -0.06910378 -0.53215957
0001b0 fe a0 89 be 47 0a f9 be 54 e4 7f be a1 c7 98 3e
       -0.2688064 -0.48640653 -0.24989444 0.29839805
0001c0 54 43 b6 3e 1d 0a f1 be 7e 96 ab be ae 5b d6 3c
       0.35598242 -0.47078028 -0.33513254 0.026166763
0001d0 d8 b9 55 3e 46 78 7c be ff cf cd bd 69 a1 ae 3d
       0.20871675 -0.24655256 -0.10049438 0.0852688
0001e0 ed 7a 8f bd f5 fb 8d bd bc 9b 32 be c6 bf 99 bd
       -0.07005868 -0.069328226 -0.1744222 -0.07507281
0001f0 b1 7b 83 bd f4 06 15 3f 36 d7 8c bc 0d 29 94 3e
       -0.06420077 0.58213735 -0.017192464 0.2893757
000200 52 7f 17 bf 67 ac ca 3e b0 bc 81 be 36 92 0c bf
       -0.5917865 0.39584658 -0.2533927 -0.549106
000210 60 a9 5f 3d 51 e9 8c be 6d 8b 38 3d 21 eb 63 3c
       0.054604888 -0.27521756 0.04505484 0.01391104
000220 ba cf a8 3e e3 9d 0a be 18 ca 82 3e 45 35 23 3e
       0.32970983 -0.13536792 0.2554481 0.1593829
000230 cf 13 71 3e c9 45 9d be f4 9d 96 3e 51 38 09 be
       0.23542713 -0.30717304 0.29417384 -0.13400389
000240 67 96 53 bf 90 dc cd be 8a 9b 9c 3e f6 0b 29 3e
       -0.8265137 -0.40207338 0.30587417 0.16508469
000250 0b 58 98 be e8 da 92 3e 90 ad 9b be 20 03 93 3e
       -0.2975467 0.28682637 -0.30405855 0.28713322
000260 64 00 80 be ff 82 b5 be 8a a5 a8 be 43 f9 07 bf
       -0.25000298 -0.35451505 -0.32938796 -0.5311472
000270 3c 0f f2 be 85 d3 18 3e dc 3c 3c be cf ff a0 bc
       -0.47277248 0.14924438 -0.18382591 -0.019653229
000280 1e b6 c3 3e 80 34 ce be 63 e2 05 be 4a f4 0e bf
       0.38224882 -0.4027443 -0.13074641 -0.55841506
000290 87 b3 3e bb b6 47 33 bf 73 91 b7 bd 53 fd 2b be
       -0.0029098706 -0.700313 -0.08963289 -0.16795854
0002a0 8c 10 44 bf 0e 9c 01 bf 2d b3 26 bd 17 26 80 bd
       -0.7658775 -0.50628746 -0.04069822 -0.06257265
0002b0 f6 94 45 be f7 73 ac 3e e7 4e e4 bc d3 75 22 3f
       -0.19295105 0.33682224 -0.027869655 0.63461035
0002c0 e4 3e 09 3e 1a ba ef 3e e7 d5 1a be f0 26 35 3e
       0.13402897 0.46821672 -0.1512066 0.17690635
0002d0 3b 89 9c be af 42 99 bc 8b d8 4b be 92 0a 15 3e
       -0.3057345 -0.018708555 -0.19906823 0.14554814
0002e0 ff 6b 4a be aa 3d 4e 3e 0b 94 83 3e 70 a3 82 3e
       -0.1976776 0.2014071 0.25698885 0.25515318
0002f0 70 02 50 be d1 5b e7 3e bc 17 05 be f1 53 d0 3e
       -0.2031343 0.45187238 -0.12997335 0.40689042
000300 0c 5e e1 3c 91 07 f4 be 6c 73 38 3e 3b 2f 0b be
       0.027510665 -0.47662023 0.1801278 -0.13592236
000310 bb 8f 92 bd 24 cc a4 bd ec d4 62 3e f7 7b 06 bf
       -0.07156321 -0.08046749 0.22151536 -0.52532905
000320 06 d7 db 3e cb 7c 73 be cd 8d 9a bd 02 5d 86 3e
       0.42937487 -0.23778073 -0.075465776 0.26242834
000330 cf 80 c3 be f0 b3 c6 be a3 6a 88 bd 16 9a 93 be
       -0.3818421 -0.38809156 -0.06660964 -0.28828496
000340 93 44 8d bd 6e c0 89 be 0b 30 99 3e 8e 8f 14 bf
       -0.06897845 -0.26904625 0.29919466 -0.5803155
000350 d7 80 c4 bc 4a 91 2a be 03 ab ff bd 7b 5c db be
       -0.023987217 -0.16656986 -0.1248379 -0.42843994
000360 9f 00 8a be 71 de 87 3e e1 ff c7 3d 4b 9c 55 bc
       -0.269536 0.26536897 0.09765602 -0.013037751
000370 d5 0c f2 3d db 9d a2 3d 2e ff 27 3e 3c 0b 2e 3e
       0.11818854 0.07940265 0.16405937 0.16996473
000380 e4 9e 3f 3d 94 72 9f be 29 b7 fa bd 36 47 82 be
       0.04678239 -0.31142104 -0.12241966 -0.25444955
000390 1a 6e d2 be 19 41 e9 3e 79 3f c7 3e 2d e7 79 3e
       -0.41099626 0.45557478 0.38915613 0.24404593
0003a0 3f 68 05 be cf 9f 1a bf ed 73 a7 3e 71 65 b8 3e
       -0.13028048 -0.604001 0.32705632 0.36014894
0003b0 b7 67 a9 3d 95 75 8a be 42 8b 57 be e2 0f 11 3e
       0.08271735 -0.27042833 -0.21049216 0.14166215
0003c0 86 6d 23 3e de 41 17 3f 5f ac 9a bd c0 e8 95 3e
       0.15959749 0.5908488 -0.075524084 0.29279137
0003d0 c1 be d0 be cb 85 a7 3e 4b c4 3b be 00 83 b2 3e
       -0.40770534 0.32719263 -0.18336599 0.3486557
0003e0 81 0d 02 3e 04 50 83 be 12 bf a3 3e 68 24 e5 be
       0.12700464 -0.25646985 0.31981713 -0.44754338
0003f0 0c 42 19 bd e2 b1 8d be 6e 6a 37 3e 5c 2a be 3e
       -0.037416503 -0.27674776 0.17911693 0.37141693

en1.bias f4 [200]
000000 9e 7e 07 bf 59 da 2c 3f 30 df 96 be ef 99 f1 3e
       -0.5292758 0.6752067 -0.29467154 0.47187755
000010 d3 ac fc 3e a3 4b 39 3e c0 58 d0 3e 75 77 15 bf
       0.49350604 0.1809526 0.4069271 -0.583854
000020 b2 c3 40 3a 9a f2 0f bf 80 17 fc be 48 15 8c be
       0.00073533796 -0.56229556 -0.4923668 -0.27359986
000030 22 9e e7 3e 9a 84 9a 3e f9 ee ff be 03 2f af be
       0.45237833 0.30179292 -0.4998701 -0.34215555
000040 ad ca 0f 3f 85 a7 d5 be 2f 2a 1c 3e 2e 60 f1 3e
       0.56168634 -0.4172937 0.15250467 0.47143692
000050 19 66 de be f9 d3 f9 3e f5 4a cd bd 76 23 d6 3d
       -0.4343727 0.48794535 -0.100240625 0.104559824
000060 a5 db 2b 3f e9 4c 94 3e b6 9d e7 3c 6f 6e 08 3f
       0.67132026 0.28964928 0.028273445 0.5329351
000070 08 e8 26 3f 2b e4 88 be 5b 44 64 3e a6 2c 6f be
       0.651978 -0.26736578 0.222917 -0.23356876
000080 31 d9 4e 3d 18 95 08 3f 4a cf ba be 50 41 37 3e
       0.0505001 0.533525 -0.36486274 0.17896008
000090 54 61 51 be 4c c9 97 3e e2 35 07 3f 69 4f 38 3e
       -0.20447284 0.29645765 0.52816594 0.17999043
0000a0 a3 35 1d be 77 52 9a bb 5d 1b 1b bd f4 16 1c 3e
       -0.15352492 -0.0047095376 -0.037867893 0.15243131
0000b0 74 c4 08 3e 3c 2d b8 3e e3 12 2e 3f 9b e1 25 bf
       0.13356191 0.3597201 0.6799757 -0.6479737
0000c0 8b ea c9 3e 90 81 22 be e2 9d d5 3e 2f 53 57 3f
       0.39436755 -0.15869737 0.41722018 0.84111303
0000d0 17 19 81 3e 52 d1 9f be ea 62 09 3f a2 52 99 3e
       0.25214455 -0.31214386 0.53666556 0.29945856
0000e0 55 00 24 3f 88 e7 b7 be 7b a5 a1 be f0 c7 10 3f
       0.64063007 -0.35918832 -0.31571564 0.5655508
0000f0 dc 89 0e 3f 33 b2 1d 3e 9c 22 b3 3d 49 de 0b 3e
       0.55679107 0.15400009 0.087468356 0.13659014
000100 c4 72 38 be 93 d7 1e bf 5c 22 09 bf 0a bd 06 3f
       -0.1801253 -0.6204769 -0.53568053 0.526322
000110 3a cc 03 bd 2f ef b1 be 68 27 0a 3f b6 3e a2 be
       -0.032177188 -0.34752795 0.5396638 -0.3168847
000120 16 da 04 3f 36 85 aa be 34 d7 2d 3f 3f 66 19 3f
       0.5189527 -0.33304757 0.679065 0.5992164
000130 a4 d8 ab 3e 8c f6 c3 be b4 b3 73 3b 74 c4 9e be
       0.3356372 -0.38274038 0.0037185969 -0.31009257
000140 08 b3 b7 3d e7 05 05 bf 4c 79 b0 3e 01 2e 05 3d
       0.089696944 -0.5196213 0.34467542 0.032514576
000150 19 f1 b0 3d 38 0a cc 3e f0 7c e5 3c 04 47 43 3e
       0.08639736 0.39851546 0.028013676 0.19070059
000160 18 bf 11 bf 1e c9 7f 3c 0f 62 08 bf d4 1a 07 3f
       -0.5693221 0.015611915 -0.53274626 0.5277531
000170 56 bf ef 3d dc e9 dc 3e c5 77 09 bf 17 87 8f be
       0.11706416 0.4314717 -0.5369838 -0.28032753
000180 b4 e5 fc be 27 98 8f 3e b9 e0 11 bd af 3d bc 3e
       -0.49394 0.2804577 -0.035614703 0.3676581
000190 b3 d5 cc be bb 43 f2 be 78 f9 07 3e 43 a8 0c 3f
       -0.4000679 -0.473173 0.13278759 0.54944247
0001a0 0c 9f cc be 59 28 4e be b8 35 b2 3d bc 41 c2 3e
       -0.39965093 -0.20132579 0.08701652 0.37940776
0001b0 eb b6 ef 3e 8e da b3 3e 3b 1f 02 3f b4 63 f9 3e
       0.46819243 0.35127681 0.50828904 0.4870888
0001c0 78 42 18 bf c9 da f5 be 95 8f 01 bf 34 03 14 bd
       -0.59476423 -0.48018482 -0.50609714 -0.036135867
0001d0 90 1b cb be da 03 8a be c8 41 0f bf 51 dd ec be
       -0.39669466 -0.26956064 -0.5595975 -0.462626
0001e0 81 c8 06 3f 39 23 68 bd 72 46 0d bf a6 e9 1e be
       0.52649695 -0.056674216 -0.55185616 -0.15518817
0001f0 aa 5e a9 be 8b db 9d 3e 85 72 a8 be 4a d8 6b be
       -0.33080035 0.3083156 -0.3289987 -0.23031726
000200 4b 50 11 3f 59 52 f5 3e ac e5 8c 3d 94 bf fe 3e
       0.5676314 0.4791439 0.06879744 0.49755538
000210 b7 8d f7 be dd 0c b3 3e 76 7d 07 bf 11 e8 09 bf
       -0.48350307 0.3497075 -0.52925813 -0.5386973
000220 52 46 02 bf e7 bf 65 be d4 e1 d6 3e 80 ab 49 be
       -0.5088855 -0.22436486 0.41969168 -0.19694328
000230 b0 f1 00 3f 12 de 07 bf 7c da 92 3e 80 df 3f be
       0.50368786 -0.5307323 0.28682315 -0.18737602
000240 56 79 e3 3e 77 60 33 3f 3a 04 03 bf f1 d5 0c 3f
       0.4442851 0.7006907 -0.51178324 0.5501395
000250 ae 93 40 3d 5d a8 ab be fa 4f b7 3e 68 b9 62 bd
       0.04701584 -0.33526888 0.35803205 -0.0553526
000260 f7 b2 ab 3d 26 b9 34 be f1 68 57 be 6f 9a 01 bf
       0.08383744 -0.17648754 -0.21036126 -0.5062627
000270 40 4b cf be 74 be 36 3e 3d ae 44 3f f1 8a 64 be
       -0.404871 0.1784609 0.76828367 -0.22318627
000280 32 34 ef 3e aa cb c2 3e 17 bb 71 bd 88 6e a0 be
       0.4671951 0.38046008 -0.059016313 -0.3133433
000290 05 ba 98 3e bc ec 1a 3f 29 3b fd 3e 4c 83 0b 3f
       0.29829422 0.6051748 0.49459198 0.5449722
0002a0 3c c7 50 be c9 aa 9e be d3 c6 ce 3c 87 ca af 3e
       -0.20388502 -0.30989674 0.025241291 0.34334204
0002b0 07 94 0e 3f 53 e6 ee bc 03 75 ed 3e 57 1c 0f 3f
       0.5569462 -0.029162562 0.46378335 0.5590262
0002c0 46 a1 35 3e 59 98 b5 3e 65 9a 7b 3e c1 67 cd be
       0.17737302 0.35467795 0.24570616 -0.4011822
0002d0 4a a4 18 be 71 ca f9 3e 63 20 ad 3e b3 df f3 be
       -0.14906421 0.48787263 0.33813772 -0.47631606
0002e0 a1 6f b6 bd eb 00 f1 3d d7 1b 2b 3e 43 de 8b 3e
       -0.0890801 0.11767753 0.16709839 0.2731801
0002f0 60 b9 16 3f 7d 72 a4 3c 2b cf 19 bf 0b 26 ab be
       0.5887661 0.020074124 -0.6008174 -0.33427462
000300 19 7d 1a 3d 4f aa 12 3f e0 fd d9 be 12 8a a0 be
       0.03771696 0.5729112 -0.42576504 -0.3135534
000310 33 4e dc bd f1 1b c7 3c 1c ed 0d bf da a3 4d be
       -0.10757103 0.024305316 -0.55439925 -0.20082036

en2.weight f4 [100, 200]
000000 64 1e b0 3c b0 85 6d bd 8f 3e af 3b 0a c9 5b bd
       0.021498866 -0.057988822 0.0053480337 -0.053658523
000010 f0 d8 07 bd 03 b5 94 bc 8c 11 7b bd 97 42 23 bc
       -0.033165872 -0.01815272 -0.06129603 -0.009964607
000020 d3 79 a5 3d 36 ea ac 3d c9 95 92 3d e2 ac 34 3d
       0.08079877 0.0844311 0.071574755 0.044110186
000030 1e 93 d5 bd 4c 8b b2 3d f1 f1 a2 3c 38 de 1e 3d
       -0.10428451 0.08717975 0.019890757 0.038786143
000040 ba bf 96 bd 17 b6 f7 bc 5c 0a 73 bd d2 d5 81 bd
       -0.07360788 -0.030238194 -0.05933605 -0.06339611
000050 d9 41 2f 3e f5 32 ba bd 9e 11 20 3c f3 f6 72 3c
       0.17114963 -0.090917505 0.009769825 0.014829385
000060 68 41 8b bd 3a 0f 64 3d 86 f1 a4 bd fd 10 19 bd
       -0.067995846 0.055678584 -0.080538794 -0.037369717
000070 5a c8 fc bc 3b 1c 1f 3d 2a 9f 66 3d 6e e9 2e 3d
       -0.030857254 0.038845282 0.056304134 0.042703085
000080 0c 55 8b 3d 9e c3 8b bb 08 55 db 3b 23 46 4d bc
       0.06803331 -0.0042652627 0.006693486 -0.012528929
000090 11 91 3d 3d 97 95 5a bd 3d 90 13 3d 97 a3 a2 3d
       0.046280924 -0.053365316 0.03602623 0.079413585
0000a0 a3 7c ab bd c5 97 51 bc c7 b6 a8 3d d2 af 73 3d
       -0.08373382 -0.012792532 0.08237987 0.059493847
0000b0 c0 75 b2 bd 49 2c 24 3d c9 45 19 bc 2f cd 18 bd
       -0.08713865 0.040081296 -0.009355017 -0.037305053
0000c0 4c 72 50 3d 30 42 cb 3c 2f bf b4 bd fb f9 7f 3c
       0.050890252 0.024811834 -0.08825528 0.015623565
0000d0 d4 5c 36 bc be 95 32 3d b1 16 e2 bc 94 fb 69 bc
       -0.01113053 0.043599837 -0.02759871 -0.014281172
0000e0 5d 3e 90 bd 6f d5 5d 3d 1d d9 4c 3c 41 0e bf bc
       -0.07043145 0.054158624 0.012502936 -0.023322226
0000f0 b8 3f bb bd 5d 0d e8 3c 0c 72 07 3d f0 b3 2f bc
       -0.09143013 0.028326685 0.033067748 -0.010724053
000100 67 ca bc 3d 79 d3 de 3c 5b 0f ca 3b 6d 71 71 bc
       0.09218293 0.027200447 0.0061663813 -0.0147365155
000110 cf ea f2 3c a8 36 34 3d 16 b6 f9 bc 5b fb 00 3e
       0.029652981 0.043997437 -0.030482333 0.12595885
000120 d4 94 94 bd 14 21 e6 3a 94 b9 f5 bc 44 6f b0 3d
       -0.07254949 0.0017557465 -0.029995717 0.08614972
000130 4d 7a a0 bd b2 e6 af bb 89 0f 2b bd 67 06 08 3e
       -0.07835827 -0.005368077 -0.041762862 0.13283692
000140 b8 b9 9b bd a0 c0 17 3c 38 30 a8 3c 56 10 e6 bd
       -0.076037824 0.009262234 0.020530805 -0.112335846
000150 b2 2d 2a 3d be f8 18 bd 8b d9 4d 3d 14 f5 f3 bd
       0.041547485 -0.037346594 0.050256293 -0.11911979
000160 b7 8f d1 bc 1f d2 61 bc 25 c1 e3 3d 6e ab 13 bc
       -0.025581224 -0.013783007 0.11120824 -0.00901304
000170 de 7a eb 39 96 aa 57 bd b6 e5 f2 bc b9 62 29 bc
       0.00044914236 -0.052652918 -0.02965055 -0.010338479
000180 20 33 a2 3d 9c fa 8c bd 90 5e 8f bd 7e 9e 06 3c
       0.079199076 -0.068837374 -0.07000458 0.008216498
000190 fd 76 bb ba f8 3a c1 bc 31 32 a1 bd ef 51 7c bc
       -0.0014302429 -0.023587689 -0.078709014 -0.015400394
0001a0 7c 7f c0 3c 8b 05 61 bd 0f bf 3d 3d d2 26 92 bd
       0.02349829 -0.054936927 0.046324786 -0.07136311
0001b0 a9 e0 4a bd 52 9f f4 3b d7 83 79 3d 84 85 41 bd
       -0.04953066 0.0074652815 0.060916748 -0.04724647
0001c0 2e 8d fc 3d 5e 98 0e bd 43 59 08 bd a3 55 d5 3c
       0.123316154 -0.034813277 -0.03328825 0.026041811
0001d0 78 af d9 bc 2c 76 71 bd b5 1f b5 bc 97 a6 c8 3d
       -0.026572928 -0.058950588 -0.022109846 0.097973995
0001e0 cf 60 28 3c cd 9b d6 3c a3 c3 ed ba 30 f0 c2 3c
       0.010276987 0.026197338 -0.0018139969 0.023796171
0001f0 de 18 ba bc 8e a7 e7 3c ed 6a f4 3d 3f 32 b9 3d
       -0.022716936 0.028278138 0.11934457 0.09042787
000200 0b fd 86 bd 4b 57 51 bd aa 49 a9 3c 85 44 eb bc
       -0.06591233 -0.05110864 0.020665009 -0.028719196
000210 c8 96 e0 bc a1 34 fc bc 8a 3e 90 bc 64 be 05 3d
       -0.027415648 -0.030786814 -0.017607946 0.032652274
000220 4a c9 1d 3d 3f 7f 60 bd 4e 51 d4 bd aa a6 56 3c
       0.038522042 -0.05480885 -0.1036707 0.013101259
000230 47 d0 9f bc 0d a1 ec bc 81 aa 4c bd 99 a4 24 3e
       -0.019508494 -0.028885389 -0.049967293 0.16078414
000240 d7 a2 46 bd b8 2d a3 bd 4c ee 9c 3d aa 55 02 bd
       -0.04849514 -0.079677045 0.07662639 -0.031819977
000250 df fe 84 bd 26 48 2a 3e 35 71 01 be f9 ec 93 3d
       -0.06493925 0.16629085 -0.12640841 0.07222933
000260 69 ab ca bd 4e 62 07 3e 7f ff a9 3d cb 8e 95 3d
       -0.09895975 0.13221094 0.08300685 0.07302626
000270 e0 77 6b 3d 31 77 ea 3c 43 33 aa 3c 02 2e fa 3c
       0.05748737 0.028621288 0.020776397 0.030539516
000280 0f a9 1a be 65 19 2e bd e2 fb 54 bd 5f dc 9b 3c
       -0.15103553 -0.042504687 -0.051998027 0.01902598
000290 1a 11 9c bd 18 d2 b7 bb 5e d5 bf bb d7 71 fb b8
       -0.07620449 -0.005609762 -0.005854293 -0.00011989817
0002a0 dd cc 90 bd dc 75 ca 3b 1f e2 0f 3d eb 1b 92 ba
       -0.070703246 0.0061786007 0.035127755 -0.0011147236
0002b0 54 e5 0c bd 90 15 72 3d 03 df 85 3c 31 55 85 bd
       -0.03439839 0.059102595 0.016341692 -0.065103896
0002c0 82 03 c0 bd 17 46 94 bb 8d 16 0d bd cd 9c 5c bd
       -0.09375669 -0.004524957 -0.034445334 -0.053860474
0002d0 18 96 79 bc 26 4d ef bc ad a3 94 3c 66 1a 49 3d
       -0.015233539 -0.029211592 0.018144453 0.04909744
0002e0 f4 95 5d bd 09 fd db bd 95 a6 92 3d ff 36 5f 3c
       -0.054098085 -0.10741622 0.07160679 0.013623952
0002f0 47 7d 90 bd 77 77 3e bd 2a 77 35 bd 5f 8d 28 3d
       -0.07055145 -0.04650065 -0.044303097 0.041150447
000300 2d 24 a4 bd 79 ab 76 bd 93 19 82 3d a7 5c 9e bd
       -0.080147125 -0.060222123 0.06352534 -0.07732516
000310 72 fd 93 3d 07 cb 04 3d 21 23 78 bb af 1b 45 bd
       0.07226075 0.032420184 -0.0037862735 -0.048122104
000320 88 7b 11 bd 68 6d c7 bc 35 8a b6 3b 20 36 f1 3c
       -0.0355182 -0.024344161 0.005570675 0.029444754
000330 c6 c4 37 bd 54 60 9a bc 2a 72 17 3c 54 f1 cb bc
       -0.044865392 -0.018844761 0.009243527 -0.024895348
000340 bc b3 96 bd 7c 5f 7f 3d 6a 5e d8 bc 33 f4 93 bc
       -0.073585 0.06234692 -0.026412208 -0.01806078
000350 4d c2 bd 3b b9 c0 04 bd c2 5c ae bc 49 f7 93 bc
       0.0057909847 -0.032410357 -0.021284465 -0.01806225
000360 02 a9 0e 3d 92 a4 a3 bc 6b d6 a0 bd 5c 15 a1 3b
       0.034829147 -0.019975934 -0.07853397 0.0049158763
000370 d6 75 a6 bd e1 d8 39 3d 44 09 a4 3b 06 56 2c 3d
       -0.08127944 0.045372847 0.0050059874 0.042074226
000380 ae af 56 bd c3 44 aa bd db 9a 2d 3d 84 cf 05 3d
       -0.052413635 -0.083138965 0.04238401 0.032668605
000390 e7 1b 8f bc a0 c5 fc 3c 60 f3 71 bd f6 d5 cb 3c
       -0.01746936 0.030855954 -0.05906999 0.024882298
0003a0 82 b5 90 bd 48 cf bf 3c de c4 2e 3d 97 94 a0 3d
       -0.0706587 0.02341427 0.042668216 0.07840841
0003b0 17 fe 44 3d 90 54 37 3c ca 70 8c 3d a3 68 6f bd
       0.04809388 0.011189595 0.0685745 -0.0584494
0003c0 b3 92 c3 3d 41 23 7e bc d0 f3 c9 3c 46 cf 7f bd
       0.09549465 -0.015511335 0.024652392 -0.06245353
0003d0 d0 ac 29 bc 8b 2d 9a 3b 27 cb 51 3d 33 dc 91 ba
       -0.010356143 0.004705136 0.05121913 -0.0011128247
0003e0 e4 f0 1b 3d 39 98 c1 3c 82 14 a2 3d e0 9e 9c 3d
       0.038071528 0.023632156 0.07914068 0.076474905
0003f0 80 e7 b5 3d a0 59 48 bb 9d 56 8a 3c 43 6f 2b bd
       0.08882046 -0.0030570999 0.016887004 -0.041854154

en2.bias f4 [100]
000000 ad 1e c0 3c 10 ae 5a bd ad 30 9a bd 9b 99 9c 3c
       0.023452127 -0.053388655 -0.075288154 0.019116214
000010 07 e6 ff 3c 28 e8 c3 bc f2 37 a9 3b aa 20 f9 3b
       0.031237615 -0.023914412 0.00516414 0.007602771
000020 04 4c 73 3d 42 09 98 bd 8d 7e 8d 3d fd b7 dc bd
       0.059398666 -0.07423641 0.06908903 -0.107772805
000030 78 de 8c bd d9 a3 90 bd 5c 70 29 bd 2b 5a 45 3d
       -0.0687837 -0.070625015 -0.04136692 0.048181694
000040 13 76 56 bd cf a8 bd bc 90 80 43 bc c2 a0 79 bd
       -0.052358698 -0.023151783 -0.011932507 -0.060944326
000050 30 53 8d bc e8 d4 13 be 62 ae b6 bc 7e da 4c 3c
       -0.017251581 -0.14436686 -0.02229995 0.0125032645
000060 8e 08 28 3b b7 86 d6 bc d2 9c df 3c 1c f5 85 3d
       0.0025639865 -0.026187284 0.027296457 0.065408915
000070 12 e3 9a bd 52 21 27 be 33 83 97 3c c6 e1 ff bc
       -0.075628415 -0.16321304 0.018495178 -0.031235587
000080 90 ea 81 3d 2e 15 cc 3d 04 b2 c3 bd 21 11 2c 3d
       0.06343567 0.09964977 -0.09555438 0.042008523
000090 b5 81 0e bd c1 5f 57 3d f5 a7 c2 bd 82 b2 a1 ba
       -0.034791667 0.052581552 -0.095046915 -0.0012336525
0000a0 04 f8 13 3e 36 ba 14 3d 81 65 09 3d c6 fe 90 bd
       0.14450079 0.036310397 0.033544067 -0.07079844
0000b0 ff 14 0f bc b4 a9 54 bd 77 b2 ad bd 9c 62 59 3d
       -0.008733033 -0.051919654 -0.08481305 0.053072557
0000c0 88 fd 24 3c d4 b7 4d 3c a7 88 b5 3d 2a c3 8e 3d
       0.010070212 0.012556035 0.08863955 0.06970818
0000d0 d5 0d a6 bc 59 87 12 be 89 89 05 be 00 5e 41 bc
       -0.020270268 -0.14309444 -0.13040747 -0.0118021965
0000e0 ff f2 8a 3a 60 b5 15 3e cf ee 32 3d 57 71 e3 3d
       0.0010600983 0.1461997 0.043684777 0.11105602
0000f0 84 53 8c 3c 65 1b 04 bd 01 a3 1d bc 2c 17 9f bd
       0.017129667 -0.032252688 -0.009621383 -0.077680916
000100 b6 7a 97 bc 52 01 26 bd 99 c3 ab bc cd 58 13 bd
       -0.01849113 -0.040528603 -0.020967292 -0.03597336
000110 c4 c5 15 3d fd 8b 13 3d dd ee 1d bc 9c d7 53 3c
       0.036565557 0.036022175 -0.009639469 0.012929823
000120 7b 19 98 3c aa 48 b4 bd ac c3 34 3e 51 0f 88 bc
       0.018566838 -0.08802922 0.17652768 -0.016608866
000130 d4 8c 19 3e 1f 6b 55 3d 0f d6 ee 3b 92 30 a5 3d
       0.14995128 0.05210411 0.0072887014 0.08065905
000140 48 e6 2f be 8d 71 1f 3c 95 3c 3c bd 70 c4 14 3c
       -0.17177689 0.009731662 -0.045956213 0.0090800375
000150 8e d2 03 bc e8 53 5f bc e4 a6 9e bd e9 89 11 3d
       -0.008045806 -0.013630845 -0.077466756 0.035531912
000160 6f e4 2d 3d ef 45 a6 bd a6 e7 82 bc 0b 5b 5d bd
       0.04245418 -0.081188075 -0.0159796 -0.054041903
000170 eb e5 4b bc 36 6c 19 bd 19 f8 19 bd ed 56 96 3b
       -0.012444953 -0.037456714 -0.03759012 0.004587999
000180 16 60 19 bc 56 64 df 3d 99 ed a3 3d 94 4d 5f bd
       -0.009361288 0.109078094 0.080043025 -0.054517344

en3.weight f4 [50, 100]
000000 73 b7 ac 3d 88 17 8a 3c a5 68 30 3d 30 4f 12 bc
       0.08433428 0.016856924 0.043068547 -0.008930013
000010 e5 2d 28 bd d4 a1 d3 3d 01 ee dc bd 6a cf 1d 3d
       -0.041059393 0.10333601 -0.10787583 0.038527884
000020 3f ec 7d 3c 18 da 40 ba 10 05 9e 3d 73 0c ad 3d
       0.01549822 -0.0007356717 0.07715809 0.0844964
000030 55 7c 85 bc ba 72 2f bd 58 6e 5c bb 95 34 64 bd
       -0.016294638 -0.04283402 -0.0033635106 -0.05571421
000040 67 10 5a bc e1 58 85 bd ec 74 b1 3d dc 14 e0 3d
       -0.013309575 -0.06511093 0.08664879 0.109414786
000050 7c f8 92 bd 82 66 84 bd da d6 d8 3d 56 b5 09 3d
       -0.07176301 -0.06464864 0.10587855 0.0336202
000060 6e e7 a2 3d 7f 37 3f 3d 0f 00 1e 3c 00 98 d2 3d
       0.07954298 0.046683785 0.009643569 0.10282898
000070 86 f6 42 3c b2 a7 c1 bd 8d 70 75 3d a9 49 ba bd
       0.011899596 -0.094558135 0.05992179 -0.09096081
000080 88 2d f8 bb cc a3 cb 3b 5e 1c 8f 3d c2 cf 4e 3c
       -0.007573787 0.0062145945 0.069878325 0.0126227755
000090 7f 7b a6 bd 17 7f 07 bd 67 af 44 3d 5a c0 2f 3d
       -0.08129024 -0.033080187 0.04801884 0.04290805
0000a0 64 0a bb bd 38 bf da bd 9f ce 45 3d 44 c4 a1 3d
       -0.09132841 -0.10681003 0.048292752 0.07898763
0000b0 a2 a5 39 3d ae 2f 8f 3d 43 f7 29 3c 4e af 41 bd
       0.045323975 0.06991516 0.010373893 -0.047286324
0000c0 88 d8 ae 3d 49 45 b2 bd 6e b1 d9 3d 3f f5 20 bd
       0.08537394 -0.08704621 0.10629545 -0.039296385
0000d0 cc b5 95 3d e4 22 41 3d e0 e9 52 3d 91 a2 5f 3d
       0.073100656 0.047152415 0.05149257 0.054598395
0000e0 f5 ba 98 bd d7 68 35 3c 42 a9 a6 bd f8 be 97 bd
       -0.07457534 0.011072359 -0.08137752 -0.07409471
0000f0 5c e1 ab bb 23 f0 19 be 3c 26 ff ba a6 28 6f bc
       -0.005245371 -0.15033011 -0.0019466351 -0.014597094
000100 b0 48 28 be 8b b3 7b bd bb 50 55 bd d6 53 5e 3c
       -0.16433978 -0.061450522 -0.052078944 0.013569793
000110 48 1d 50 3c 98 0d 56 3d aa 35 2f bd fc e9 f0 3c
       0.012702294 0.052259058 -0.042775787 0.029408447
000120 0b 9a 9f bc ae 21 d9 3b f4 4f ef bd 0b 61 a7 3d
       -0.019482633 0.0066263294 -0.11685172 0.08172806
000130 ce cf 35 bc cb 3d 90 bd 13 97 ab 3d 73 7f e1 bd
       -0.011096908 -0.07043036 0.083784245 -0.11010637
000140 f9 67 63 3a 77 a2 fc bc a3 01 52 bd 77 19 21 bd
       0.0008674856 -0.030839188 -0.051271092 -0.039330926
000150 05 6e d8 bd 68 59 cb bd f2 42 94 3d d2 a9 56 3d
       -0.105678596 -0.09929162 0.07239331 0.052408047
000160 7a eb cc bc 01 59 3b bd 57 16 2b bd ed e3 19 bd
       -0.025014628 -0.045739178 -0.04176935 -0.037570883
000170 a4 1f bb 3d 69 00 d3 bb 25 b9 88 3d f8 7b b4 3c
       0.09136894 -0.006439258 0.066759385 0.02203177
000180 75 36 0d bd 66 b3 fa 3c 42 f5 77 bd 35 6b 07 3d
       -0.034475762 0.030603122 -0.06053663 0.033061225
000190 65 91 5b 3d 52 af 3c 3c 30 d7 49 bd 3f 1a 0e bd
       0.053605456 0.011516409 -0.049277484 -0.034693
0001a0 00 58 9b 3d 61 76 17 be 0a ff 2a 3d de 35 c5 3c
       0.07585144 -0.14791252 0.04174713 0.024073537
0001b0 46 63 ca bd a5 52 e5 bd 47 c4 70 3b 4c 02 c9 be
       -0.09882216 -0.11197404 0.0036738084 -0.39259565
0001c0 8c b5 a9 3c 1e 4e 8a bd a8 0d 4b 3c 58 a4 70 3e
       0.020716451 -0.06753181 0.012393393 0.23500192
0001d0 46 ed 6d 3c f2 a8 bd bd 6e 94 0e bd 1b 8b be 3c
       0.014521902 -0.092607394 -0.034809522 0.02325969
0001e0 c4 2a 7f 3c 4f eb 1d 3d b8 62 f9 3b 9d f1 0d 3e
       0.015574161 0.038554486 0.007610645 0.138617
0001f0 a8 03 5f bd ab c0 d5 bd 37 85 8f bd 8b 51 f6 bd
       -0.054446846 -0.10437139 -0.070078306 -0.12027272
000200 d5 25 fe bd bf a3 ac be 8f a9 93 3d e9 58 d3 bd
       -0.1240956 -0.33718678 0.07210075 -0.10319693
000210 43 1a c9 3d 92 d0 31 bd 8b 6e ba bd 81 40 71 3d
       0.09819462 -0.0434118 -0.09103116 0.058899406
000220 de 0a b8 3d 09 11 23 bd e1 37 88 3d 1e 73 77 3c
       0.08986448 -0.039811168 0.06651283 0.01510313
000230 41 7f 23 3e a8 a8 b3 3d 0b f7 b0 bd 4a ff a5 bd
       0.15966512 0.08772403 -0.0864087 -0.08105333
000240 17 a4 2b 3e 37 7b a1 bd db 44 27 bd 40 71 af 3d
       0.16761814 -0.078848295 -0.04083715 0.085665226
000250 76 71 91 3d 30 7d b9 3d fc fc a5 3d 71 5d 92 bd
       0.07101719 0.09057081 0.081048936 -0.07146729
000260 a0 fc 66 bc 00 d6 95 bc f6 94 5f bc e2 9e 7e 3d
       -0.014098316 -0.01829052 -0.013646355 0.06216324
000270 98 da d1 bc 6d f6 9a 3e e9 03 41 be 8f 5f 6c 3d
       -0.025616929 0.30266133 -0.18849148 0.05770832
000280 8f 01 1b be 1d dd 58 3c 9e b9 ad 3b 21 98 b0 3b
       -0.15137313 0.013236311 0.0053016683 0.005389229
000290 c0 af 5e bd 32 02 a8 3d 75 6d b6 bd e3 38 cd 3d
       -0.054366827 0.08203544 -0.08907596 0.10020616
0002a0 db a0 6f 3c 3a 66 c6 3d 9e 82 0e 3e 4a 1b 51 bd
       0.014625753 0.09687467 0.13917014 -0.051051416
0002b0 85 d3 7c bd 80 0a 84 3d ff 63 1c bd 56 90 7a bd
       -0.06172516 0.06447315 -0.0381813 -0.061172806
0002c0 57 28 3c 3e 5b 89 5f 3d 4f 1c b5 3c 58 bd 15 3e
       0.18374763 0.05457435 0.022108225 0.1462301
0002d0 74 38 d6 3d 99 e2 0b be 9d 2b c8 3d fc e4 8e bc
       0.10459986 -0.13660659 0.097739436 -0.017443173
0002e0 e3 c9 92 bd ae ed 8c bc 0c db c9 bd f8 8d 63 bb
       -0.07167413 -0.017203178 -0.09856233 -0.003472207
0002f0 35 1d 66 bd e1 ba 2b be 6d ef d7 3d 27 7f a9 bd
       -0.056180198 -0.16770507 0.10543714 -0.082762055
000300 19 c5 83 3d d6 f3 dc bb 27 0b 91 bd ee 46 9e bc
       0.06434078 -0.0067429347 -0.07082205 -0.019320931
000310 91 eb ca 3d 12 ab 96 3d 1a 23 08 3e d5 c0 d1 bc
       0.09908212 0.07356848 0.1329464 -0.025604645
000320 c8 88 31 3c 60 48 31 bd f2 c9 13 bc 6e 96 c4 bd
       0.010835834 -0.043281913 -0.0090203155 -0.09599005
000330 41 c0 b4 bc e6 e4 9d bd c9 88 c6 3d 6a 03 25 3c
       -0.02206433 -0.077096745 0.096940584 0.010071615
000340 e0 fe 89 3d 1f b7 37 3d ce 0c a5 bc 18 4e bc 3d
       0.06738067 0.044852372 -0.020147707 0.09194583
000350 b7 c3 9b 3c 7c d2 6c bd 67 c0 59 3d 51 25 81 3d
       0.019014223 -0.05781792 0.053162005 0.06305946
000360 32 4f 69 bb 3b 4c f4 bd 9a 66 d3 3c 17 6e a9 bd
       -0.0035600183 -0.11928602 0.02580576 -0.08272951
000370 5a 57 83 3d 62 1a 54 3d ec 99 95 3b b7 37 1e bd
       0.06413145 0.051782973 0.004565468 -0.038627353
000380 5d 63 b2 3c e7 0f d5 bd ea 80 91 3c c7 49 1f 3c
       0.021775896 -0.10403424 0.017761666 0.00972218
000390 8d 79 9f bd 6c 4e ad bc 65 e9 1e bd 79 09 b6 bd
       -0.07786856 -0.021155559 -0.0387968 -0.088885255
0003a0 03 3a 8d bd 87 81 3e bd 7f 0c f8 bb 06 b8 44 bd
       -0.068958305 -0.046510246 -0.007569849 -0.04802706
0003b0 48 09 8d 3c e4 53 a1 3d bf e7 04 be 3d c2 f8 bd
       0.01721634 0.07877329 -0.12979029 -0.12146423
0003c0 e7 66 a1 bd 7b f6 b6 bd 2b 49 d4 3d 9f 13 c9 bd
       -0.07880955 -0.08933731 0.10365518 -0.098181956
0003d0 18 a7 75 bc ad 44 8b bd c3 7b 36 3d 98 68 ba 3c
       -0.014993452 -0.06800208 0.044551622 0.022754952
0003e0 10 ea 6f bd 6a 1a c1 3d b0 3b 13 3e d0 04 df 3c
       -0.05857283 0.09428866 0.14378238 0.027223974
0003f0 9b 6b eb bd 58 67 99 bd 92 8e 0e 3d 43 a9 3d 3d
       -0.114951335 -0.074904144 0.034803934 0.046304

en3.bias f4 [50]
000000 d0 15 c7 bd 04 56 65 3d 4c aa bb 3d 30 d5 45 3a
       -0.09720957 0.055990234 0.09163341 0.0007546721
000010 4b 6b 75 3d 98 55 86 bd 5c 98 b9 3d 9a b3 05 be
       0.059916776 -0.065592945 0.09062263 -0.13056794
000020 a2 cb 4e 3d 2f 42 d5 3d 8f 68 a0 3d a7 ae 87 3c
       0.050487168 0.10413014 0.07832443 0.016562773
000030 f2 bb 6d bd 94 b6 22 bc 54 d0 bf 3d 24 3b 8c 3d
       -0.058040567 -0.009931225 0.09365907 0.06847218
000040 1b 3b 9a bd 04 1c cb bc 81 82 9e bd 34 85 33 bd
       -0.07530805 -0.024793632 -0.077397354 -0.043828204
000050 d0 e1 bc bd 9b 41 f7 3c 10 58 14 bc 3b fb 79 bc
       -0.09222758 0.03018265 -0.009054199 -0.015257652
000060 fe 48 c6 bd 6f 6e 9b 3d 7b 96 dc bd 74 4f 86 bd
       -0.09681891 0.07589423 -0.10770889 -0.06558123
000070 de 19 41 bc a5 77 bd 3b 43 61 d3 3d 0b cf 30 3c
       -0.011785952 0.005782085 0.103212856 0.01079155
000080 23 01 63 bd fd 0c 16 bc 99 51 98 3d 2d 06 89 3d
       -0.055421006 -0.00915837 0.074374385 0.06690631
000090 da a1 96 bd ed 66 be bc 7d 2c b8 bd ba 19 b8 3b
       -0.073550895 -0.023242438 -0.089928605 0.005618301
0000a0 b5 85 ed bd 90 0f 98 bd 18 20 73 bc de 48 95 bd
       -0.11597768 -0.07424843 -0.014839195 -0.07289289
0000b0 94 6c 19 bd 97 b3 95 3d ca d3 9a bd 19 35 92 3d
       -0.037457064 0.07309645 -0.07559927 0.07139034
0000c0 00 b3 8b 3c f6 a1 eb 3d
       0.017053127 0.11505501

en4.weight f4 [3, 50]
000000 a9 01 e9 3c 39 6b 24 3e ce 07 16 bd 57 dd c3 bd
       0.028443174 0.16056527 -0.036628537 -0.095637016
000010 db 7d bf bb 02 52 a5 3d 1b 3c 71 3d b2 1d 96 3d
       -0.0058438606 0.080722824 0.05889521 0.07329883
000020 3b 46 a6 bd 19 14 e3 bd 0b 84 86 3b dd ca 95 3c
       -0.08118864 -0.11087818 0.004105096 0.01828521
000030 c3 4c ab 3c b0 35 e8 3d 71 c9 df bd cf cb 12 be
       0.020910626 0.11338365 -0.10927094 -0.1433556
000040 65 9b 90 3d 1e c7 21 3d 95 ec d0 3d 92 31 ca 3d
       0.07060889 0.039496534 0.102013744 0.09872736
000050 b4 4b cc bd fa 9d 8c b8 c4 3b d9 3d e9 d8 f2 bd
       -0.09975377 -6.705146e-05 0.106071025 -0.118577786
000060 6b ba 07 3e ba b9 e4 3c ee c2 91 3c 83 a9 6b bc
       0.13254707 0.027920593 0.017793145 -0.014383676
000070 fc c4 18 bd 47 eb 00 bd 65 e6 06 be 10 dd e9 bd
       -0.037297234 -0.031474378 -0.13173826 -0.114191175
000080 63 45 6b bd 5c 4a f5 3c f3 f5 b8 3d 2f cf 26 be
       -0.05743922 0.029942684 0.09031286 -0.16289972
000090 08 7c d9 3c 3f 47 af bd 76 02 07 3d 58 3b 2f bd
       0.0265484 -0.08558511 0.03296133 -0.042781204
0000a0 1a 18 f7 3d 63 29 bc 3d fe 7c ca 3d 92 f7 47 be
       0.12065144 0.091875814 0.098871216 -0.19528034
0000b0 87 2b 33 bd ed bb 06 bd 2a 9e d5 3d e9 e9 0d 3e
       -0.043742683 -0.032894064 0.10430558 0.13858761
0000c0 02 42 13 be 18 a1 1d 3e e9 17 7a bd 6e d6 6d 3d
       -0.14380649 0.15393484 -0.06105796 0.058065824
0000d0 49 90 b1 bd d2 87 e5 3d 96 bd c6 bd 12 8a 9d 3d
       -0.08670098 0.11207546 -0.097041294 0.076923504
0000e0 7d e2 2a be ea 65 ce 3c d3 f2 ae 3d 93 af 2f bd
       -0.16687961 0.02519508 0.08542409 -0.04289205
0000f0 ba 98 74 bd 7d 0c 7e bd cd 50 99 bc 64 10 02 3e
       -0.059715964 -0.06202363 -0.018715287 0.12701565
000100 c9 0a 55 bd d5 65 e5 bd 50 37 fc bc 0d f4 90 bd
       -0.05201224 -0.112010635 -0.030788094 -0.07077799
000110 cf 7d c4 bd f8 de 4b 3d 4d dd f4 3c 0b f5 f5 3d
       -0.095943086 0.049773186 0.02989068 0.12009629
000120 61 ff 33 bd a7 4d 9a bd fc 70 34 bd ba a6 b3 3d
       -0.04394472 -0.07534342 -0.044053063 0.08772035
000130 8f 6c f2 3d 9c b5 fb 3c f4 8e 9f bc 97 b5 0e 3e
       0.11837112 0.030726247 -0.019477345 0.13936459
000140 95 f5 b8 3d 14 47 58 3d bd 48 c3 bd e9 c9 c0 bc
       0.09031216 0.05280216 -0.09535358 -0.023533778
000150 f7 7a 7e 3c f2 21 28 bd 30 44 54 bd db e1 09 3d
       0.015532247 -0.041047998 -0.05182284 0.03366266
000160 70 35 03 be 88 f0 c6 3d 18 d6 d4 3d a7 be b9 bd
       -0.12813354 0.097138464 0.10392398 -0.09069567
000170 f5 0b 61 3d 24 49 b5 bd b2 31 0a 3e 88 17 ac bd
       0.054943044 -0.08851841 0.1349552 -0.08402926
000180 3b 6a 00 3e 88 07 e0 bd 3b bb 04 3e 15 b2 c7 bd
       0.12540524 -0.109389365 0.12962048 -0.09750763
000190 e9 e5 b5 3d 8e 43 48 bd ac 41 d6 3d 23 f3 cf bc
       0.088817425 -0.04889255 0.10461745 -0.025384491
0001a0 8e 3b d7 bd 90 f1 38 3d 96 bd af 3d 1c 96 c2 3d
       -0.10509406 0.045152247 0.085810825 0.09501287
0001b0 39 d2 da bd 0d c3 94 3d 1b 9b 05 be da e0 4d bd
       -0.10684628 0.072637655 -0.1304745 -0.050263263
0001c0 fa ff 4e bd 18 4d 6b 3d 71 e7 a1 3d d8 ea 6b bd
       -0.050537087 0.05744657 0.07905472 -0.05759701
0001d0 ce 2f c4 3d 21 66 e6 bd d3 74 5a bd cd 34 40 bd
       0.095794305 -0.11249948 -0.05333407 -0.046925355
0001e0 3b ae f1 3d 6d d6 45 bd b0 24 04 be e0 98 70 bd
       0.1180081 -0.048300195 -0.1290462 -0.058739543
0001f0 ee ee fb bd a2 a9 a4 bd cd 7a c8 bd 21 db 87 3d
       -0.123014316 -0.080401674 -0.097890474 0.066335924
000200 c5 94 0f be 68 5c 48 3d 2c 6d 1e bc 5b 4a a6 3c
       -0.14021595 0.04891625 -0.009669583 0.020299127
000210 26 67 91 3c d3 7c ba 3d 6c d9 0e 3d 2c 36 ee bd
       0.01774938 0.091058396 0.03487532 -0.11631426
000220 f2 06 84 bc bf de 2a bd 79 cd b2 3d 6e 34 d8 3d
       -0.016116593 -0.041716333 0.08730597 0.10556875
000230 82 43 1e 3c 5e da 67 3d 21 b2 ec bd d9 56 1b be
       0.00965965 0.056604736 -0.11557413 -0.15169849
000240 8c 8d 07 be 62 e9 93 bd 6b ef 21 bd 67 1b 77 bb
       -0.1323759 -0.072222486 -0.039534967 -0.0037705542
000250 c5 14 bf bd a3 b5 fa 3d
       -0.09330133 0.12241676

en4.bias f4 [3]
000000 6f 62 73 3d 03 06 96 bd ad fe 68 bd
       0.059420045 -0.073253654 -0.056883503

de1.weight f4 [50, 3]
000000 04 42 29 bf 4d e8 7c be 90 26 ac be 54 fa 29 bf
       -0.66116357 -0.2469799 -0.3362317 -0.66397595
000010 fc ea bc be 05 8a e0 3d 80 c7 79 be 9a cb 4b 3e
       -0.3689803 0.10963825 -0.2439251 0.19901887
000020 05 d2 04 3f 3b 18 0d bd 9a d8 da 3e 6c 80 97 be
       0.51882964 -0.034446936 0.4274338 -0.29590166
000030 36 b1 b1 bd 8b ef 1f bf 68 88 6b be aa fb 69 be
       -0.086763784 -0.6247489 -0.23001254 -0.22849908
000040 aa 94 ce be 49 81 01 3f 95 23 05 3f 33 4e d9 be
       -0.40347797 0.505879 0.5200742 -0.42442474
000050 95 b4 1e 3f 81 a5 d8 bc 8e 68 fc be 28 3c 04 bf
       0.61994296 -0.026446106 -0.4929852 -0.5165429
000060 2b d5 1d bf 75 87 2d 3e 37 a7 69 3d f2 1b c0 be
       -0.61653394 0.16946204 0.057044234 -0.3752132
000070 a1 33 b1 3e 78 54 e2 bd 83 9c 1e 3f 1a 6f 01 3f
       0.34609702 -0.110512674 0.6195757 0.5056015
000080 13 43 6a 3e 8b af c5 be 3d d3 3b 3e ed d9 5f be
       0.2287715 -0.3861049 0.183423 -0.21860476
000090 67 a2 f0 3e 04 51 d3 be c3 08 fb 3e 7e ed ae 3e
       0.46998903 -0.41272748 0.49030122 0.34165567
0000a0 c4 58 ff be 44 a6 40 be fc 91 50 bf c0 ec 34 bc
       -0.4987241 -0.18813425 -0.81472754 -0.011042774
0000b0 ed f4 0d bf 0d 66 18 be 34 d3 94 3e 50 a8 10 be
       -0.5545185 -0.1488268 0.29067385 -0.14126706
0000c0 56 a1 1b 3f 68 f7 b1 be 32 5d 1b 3f 6d 9c 71 be
       0.60793054 -0.34759068 0.6068908 -0.23594828
0000d0 f3 d6 d7 be 80 71 fa be c7 dd 78 3d e9 ca cd be
       -0.4215618 -0.4891472 0.06075838 -0.4019387
0000e0 13 a4 e8 3e 15 42 45 be 05 b4 76 3e 6a 45 36 be
       0.4543768 -0.1926349 0.2409211 -0.17799917
0000f0 7d 25 05 bf f4 db 5a bd d0 f4 19 be 6e 46 57 bd
       -0.5201033 -0.05343242 -0.15034795 -0.0525574
000100 bd cb 8b be 7c 55 d2 be d1 35 a9 bb 4a 2b 34 be
       -0.27303877 -0.41080844 -0.005163886 -0.17594638
000110 ed ec c7 3e 4b c2 1d bf 6c 09 19 bf 3e 98 b8 be
       0.39047948 -0.6162459 -0.5978 -0.36053652
000120 94 71 c6 be 70 8e 89 3e 82 da 9d 3e 6c a2 ea 3e
       -0.38758528 0.26866484 0.3083077 0.45827043
000130 f9 ac 6e be cf 15 dd be cd 7d 89 be 44 01 15 bf
       -0.23308171 -0.431807 -0.2685379 -0.58205056
000140 36 68 8c 3e f4 3e b6 3e 0c 55 d2 3e e3 d0 e2 be
       0.27423257 0.35594904 0.4108051 -0.44299993
000150 32 78 1a 3f 14 fb f7 3e 73 a6 00 bf aa 0f 21 bf
       0.60339653 0.48433745 -0.5025398 -0.62914526
000160 65 2b c3 bd 65 99 06 bf 0a 30 c1 3b 16 14 c9 3e
       -0.09529761 -0.5257781 0.0058956193 0.39273137
000170 7b b2 e9 3e ae d9 12 3f 69 5e cc 3e f9 25 9d 3e
       0.45643982 0.573634 0.3991578 0.30693033
000180 41 25 d5 3e 01 87 8d be 7e e2 cc 3e 1e 4d 3c bf
       0.41629985 -0.27642062 0.4001655 -0.7355517
000190 0c 8c e9 be 49 67 3e 3e ae 3c 95 bd ad d4 1f 3f
       -0.4561466 0.18594088 -0.07286964 0.6243389
0001a0 d1 8d f9 be f4 82 fb be 19 62 49 3e 0b cb 2c bf
       -0.4874101 -0.49123347 0.19666328 -0.6749732
0001b0 fd 02 e8 3c a2 8d 3d 3e 92 ee e7 be b1 1b 4c 3e
       0.028321737 0.1851106 -0.45299202 0.19932438
0001c0 cf 6f a8 3e b3 39 90 3e 64 c2 33 bf 39 3d e1 bd
       0.32897803 0.2816902 -0.7021849 -0.109980054
0001d0 83 88 dc be 9e 21 dc be de a5 71 be 43 f3 ae 3e
       -0.430729 -0.42994398 -0.2359843 0.3416997
0001e0 5b c1 c9 be e6 e1 da be 3f b3 24 be 19 86 fe bd
       -0.3940533 -0.42750472 -0.16084002 -0.12427921
0001f0 78 f8 a0 be f4 df 2c be d8 db 3c 3e 09 c9 d5 3e
       -0.31439567 -0.16882306 0.18443239 0.4175494
000200 5e 81 16 bf 5f 8d 1c 3f 15 32 1d 3f 5c d4 c2 be
       -0.5879115 0.61153215 0.61404544 -0.38052642
000210 86 22 3d bf 6c 9f f3 3e e7 2e e0 be 46 ed c8 3e
       -0.73880804 0.47582567 -0.43785784 0.39243525
000220 a6 36 f0 be 21 bf b9 be 06 c0 6f 3e f1 1a c0 be
       -0.46916693 -0.36278632 0.23413095 -0.37520555
000230 97 e7 00 bf 20 71 18 bf 3d 96 ed 3e 5c 04 23 bf
       -0.5035338 -0.59547615 0.46403685 -0.63678527
000240 b8 11 2b 3f 47 56 16 bf 10 9d e0 3e 08 5e d9 3e
       0.6682391 -0.587254 0.4386983 0.42454553
000250 4a d0 f1 3d 99 8a 0f be
       0.11807306 -0.14017715

de1.bias f4 [50]
000000 fa 41 8a be e7 a0 3c 3e 32 64 07 bf 8a 38 35 be
       -0.2700346 0.18420754 -0.5288726 -0.17697349
000010 40 14 05 be ca d7 d4 be 9a 34 3c 3e dd 1e 1c bd
       -0.12996006 -0.41570884 0.18379441 -0.03811537
000020 29 50 ee be 8b b8 8c 3e ba ee 9e 3e 48 54 d8 bd
       -0.46545532 0.27484545 0.3104151 -0.105629504
000030 3a 05 bd be 25 d9 9d be 4d 26 e3 bd d8 68 d1 bd
       -0.3691805 -0.3082973 -0.1109129 -0.102250755
000040 1d 85 76 3e e3 a6 55 be 18 e1 b5 bd b4 5a f9 be
       0.24074216 -0.20864443 -0.08880824 -0.48702013
000050 2a 3c c7 3d 2c b3 8b 3e 0c 3a 62 3e 80 3c db 3e
       0.09728272 0.27285135 0.22092456 0.42819595
000060 e3 de fd 3d 0f 8c 2a 3e 72 c1 29 be 94 e7 ec 3e
       0.12396028 0.1665499 -0.165777 0.4627043
000070 91 28 0c 3f 89 7f 45 3e 56 ad c9 bd d2 aa 34 bc
       0.547494 0.19286932 -0.09847514 -0.011027055
000080 39 4e a8 3e 3a 71 ad be 3e 0b 7d bd b8 34 b1 be
       0.3287218 -0.33875448 -0.0617783 -0.34610534
000090 08 61 07 bf eb 7d 9b 3e c4 f1 28 be ea 17 f2 3e
       -0.5288243 0.30369505 -0.16498476 0.4728387
0000a0 92 a8 e5 be 6c 51 9f bc 3c bc ae 3d c1 cf 00 3d
       -0.4485517 -0.019448005 0.085319966 0.03144813
0000b0 3a 60 d2 be fc b0 e3 be 4a 42 cb be 88 e3 7e 3e
       -0.4108904 -0.44470966 -0.39699012 0.24891484
0000c0 48 5c c2 3d 05 31 ef 3d
       0.094902575 0.116792716

de2.weight f4 [100, 50]
000000 46 28 4d 3d bc 8a 41 3e 23 40 78 3d 1f cf 9b 3b
       0.050087236 0.18900579 0.06060804 0.0047549154
000010 c4 3a 66 3d bb 66 f3 bd b4 bd 4e 3d e3 2c 87 3d
       0.056208387 -0.11884829 0.050473884 0.06600358
000020 ce 2a f0 bd e2 14 a7 3d 08 52 c3 3d 15 26 bf 3c
       -0.11726914 0.0815828 0.095371306 0.023333589
000030 d9 45 e4 bc ab 1f a5 3d 4f 73 62 bc 70 45 87 3c
       -0.027865337 0.08062681 -0.013821437 0.016512603
000040 43 68 96 bc 6b 41 9c 3d 75 40 a1 bd 19 22 99 bd
       -0.018360263 0.07629665 -0.07873622 -0.07477207
000050 46 a1 61 3e 09 a2 06 3e 36 50 f7 3d 02 43 48 3e
       0.22034177 0.13147749 0.12075846 0.19556811
000060 43 f3 90 bc c1 83 f6 bd d2 f0 d2 3d 60 48 26 3d
       -0.017694121 -0.12036849 0.10299839 0.040596366
000070 15 1c 11 3e d8 fe 4f 3d a6 f3 13 be 23 42 54 be
       0.14170869 0.050780147 -0.14448413 -0.20728354
000080 ee d9 a7 3d 55 df 41 bc 9b f4 cb bd 8d 5b 82 bd
       0.08195864 -0.011833032 -0.09958764 -0.06365118
000090 03 5d b9 bd e6 fd b9 3d 8d b6 bb 3c ad 21 8d 3d
       -0.09050944 0.090816304 0.022914195 0.06891189
0000a0 39 c4 2e be bb a2 fe bc 3a 44 cd bd 1d 19 85 3d
       -0.1706704 -0.031083455 -0.10022779 0.064989306
0000b0 42 6d 87 3d 28 92 00 be 3c d6 3d be b5 ab 0a 3e
       0.06612636 -0.12555754 -0.18538755 0.13542064
0000c0 9d e6 c7 bd 79 78 cf 3c 6b fd 61 bd b8 eb 0a be
       -0.09760783 0.025326 -0.05517332 -0.13566482
0000d0 b8 1d 5e be 76 62 d8 bd 46 e4 96 3d e8 31 3e be
       -0.21691024 -0.10565655 0.073677585 -0.18573725
0000e0 6b 4d 25 3e 72 bf 70 3e af 7c 2e bd f9 88 15 3c
       0.16142814 0.2351053 -0.042599376 0.009126895
0000f0 36 4d 48 3e 45 43 d1 bd fe 57 a7 bc 7c bd 2e 3e
       0.19560704 -0.10217909 -0.0204277 0.1706447
000100 e0 18 10 be 2f 6f ea bd 8b 10 37 3e 3d 0d 7b 3d
       -0.14071989 -0.11446988 0.17877404 0.061291922
000110 ea 53 29 3e 1e fc 16 be 56 a8 ce bd 4d ae 87 3d
       0.16535917 -0.14744613 -0.10090701 0.06625042
000120 51 bc 1d 3e 88 44 5c 3d f6 c7 0f bd 07 d0 71 3e
       0.15403868 0.053776294 -0.035102807 0.23614512
000130 f8 f9 81 3d 83 dd 9e 3d 2c af 55 3e 4b b2 44 bc
       0.06346506 0.07757094 0.20867604 -0.012005399
000140 5a 53 47 be d5 fd 8b bc 4d ef bb 3d 71 59 eb bb
       -0.1946539 -0.01708881 0.091765024 -0.007182293
000150 43 79 b7 3b 1e a5 78 bd b3 82 f5 3a 6f 08 d5 bd
       0.0055991723 -0.060704343 0.0018730968 -0.10401999
000160 52 e8 3b be c5 92 7b bd c4 87 05 be 9b bd 09 3e
       -0.18350342 -0.061419267 -0.13040072 0.13451235
000170 d3 02 a4 bd 42 e8 84 bc 66 c6 ca bd 35 72 d6 3d
       -0.08008351 -0.01622403 -0.09901123 0.10471002
000180 77 25 f3 3d ce 6c 20 3d 25 27 e9 3d 8a 1c da 3d
       0.1187238 0.039166264 0.11384419 0.10649975
000190 ac 62 aa bd b6 e7 1c be be 33 b7 3d 9a 63 5f bd
       -0.083196014 -0.15322766 0.08945416 -0.054538347
0001a0 89 91 a8 bd 28 85 a0 3d 22 3f 47 bc 96 ed ee ba
       -0.08230884 0.078378975 -0.012161048 -0.0018228765
0001b0 42 b1 82 3d bb fa 87 3c 03 c5 01 3e 67 af da bd
       0.063814655 0.01659905 0.1267281 -0.106779866
0001c0 41 74 a5 bb 52 84 54 bd 23 ca ef bd fd d8 fc bd
       -0.005049259 -0.051884003 -0.117084764 -0.12346075
0001d0 93 a3 a0 3d 90 b4 63 3d d3 43 68 bd 59 0f d7 bd
       0.07843699 0.05559212 -0.056705307 -0.10500974
0001e0 00 63 02 be e4 e6 15 39 eb e6 f2 bd 1d ba 1f be
       -0.12733078 0.00014295761 -0.1186045 -0.1559834
0001f0 41 a1 e8 bd d1 2b 4a bd 33 9d 79 bc 0b fd 05 be
       -0.11358882 -0.049358193 -0.015235233 -0.1308481
000200 a4 76 09 be 6e 6e 69 be a1 e3 f5 3d 0e 7f aa 3d
       -0.13424164 -0.22796032 0.120063074 0.08325015
000210 7e 21 5a 3d 9e d2 76 3b 48 a9 54 bd 3f 20 88 bd
       0.053254597 0.0037662159 -0.05191925 -0.066467755
000220 26 9b 89 3d b4 9e ca bc b5 4b c9 bd 05 10 01 be
       0.06719045 -0.024733879 -0.09828893 -0.12603767
000230 b0 c4 2c 3d 88 b0 e6 3c 46 31 09 be ca 48 c0 bd
       0.042179763 0.028160349 -0.13397703 -0.093888834
000240 13 0e 92 3d 6d 3d 0f 3e f2 1c 8f 3d 95 21 37 bc
       0.07131591 0.13988276 0.06987943 -0.01117744
000250 38 33 83 bc 6c 9c 7a 3d 1f ef 46 be 3f b4 81 bd
       -0.016015634 0.06118433 -0.19427155 -0.06333207
000260 92 35 bd bd 97 ce 65 bb 68 f1 6f 3e 56 48 25 bb
       -0.09238733 -0.0035065764 0.23431933 -0.0025220118
000270 ab a8 13 3e a7 e1 82 3e 75 ca 31 be 54 24 07 be
       0.1441981 0.25562784 -0.17362387 -0.13197452
000280 0a 16 2e bd 5d ae 1b bd 8c cb ad bd 60 43 54 3e
       -0.042501487 -0.038008083 -0.08486089 0.20728827
000290 15 c8 ea bd 87 d2 46 bd 43 f6 90 3d 72 11 b4 3d
       -0.11463944 -0.04854062 0.07078221 0.0879239
0002a0 39 fa 61 3e 8c 0f 17 be e5 d8 b5 bd d3 52 31 3e
       0.22068109 -0.14752024 -0.0887926 0.17316751
0002b0 79 48 20 3e 3e e0 1b 3b 9b fe 83 ba 08 da 74 3d
       0.15652646 0.0023784782 -0.0010070385 0.059778243
0002c0 7d ba 8e 3e 5b 24 c9 3d d7 7f 57 bd ca 2b 87 3d
       0.27876654 0.098213874 -0.052612152 0.06600149
0002d0 14 fd 84 be a8 8d bc bd 84 fa 35 3e fd 20 df bd
       -0.25974333 -0.09206706 0.17771345 -0.10894964
0002e0 4b c8 8b be 68 df 3d be 72 2a a9 bd d4 97 7d 3d
       -0.2730125 -0.18542254 -0.08260049 0.061912373
0002f0 8a 9d 33 be ac dc 11 3d c5 c8 33 3d 66 a7 8d 3e
       -0.17540565 0.03561084 0.04389264 0.27666777
000300 7f 33 d1 bd 30 28 4a bd 57 6c 53 be 38 ae 2e bd
       -0.102149 -0.049354732 -0.20646797 -0.042646617
000310 67 c4 0f be 09 66 49 bd 10 8f 52 3e 5d c7 22 3e
       -0.14039765 -0.049169574 0.20562387 0.15896364
000320 5b 30 3f 3e 6d 88 f2 bd bd 86 38 3d 10 96 ad bd
       0.1867079 -0.118424274 0.04505037 -0.08475888
000330 7d 45 15 3e 69 91 8f bd 1a d3 b8 bd 4f 50 a3 3d
       0.14577289 -0.07010157 -0.090246394 0.07974302
000340 b9 1d aa 3d 31 4c 9f bd f3 ff 1d be 4d 04 04 be
       0.083064504 -0.07778204 -0.15429668 -0.12892266
000350 42 6e 79 3d 0f 57 82 3a 2c 1e db 3d 78 c7 36 3d
       0.060896166 0.0009944158 0.10699114 0.044623822
000360 b0 56 29 3d 0f b1 2b 3e 41 96 eb bd da 53 59 3d
       0.041342437 0.16766761 -0.11503268 0.053058483
000370 12 28 67 3c f1 11 fa bd df 0e 34 bd 24 6f c5 bd
       0.014108675 -0.12210453 -0.043959495 -0.09640339
000380 19 fa b0 bd a6 0a 0b be 19 27 b5 bd 99 2a 05 be
       -0.08641452 -0.13578281 -0.08845348 -0.13004531
000390 2c fe 15 be b9 f0 80 3d 3b cb 2e 3d d7 8f 8e bd
       -0.1464774 0.06295914 0.042674284 -0.06961029
0003a0 cd 40 f0 3d 57 50 05 3e 6e aa 99 bd 16 19 ef 3d
       0.1173111 0.13018928 -0.0750321 0.11674707
0003b0 a6 09 44 bd 5b ab e4 bb 25 df 0a 3c 27 40 d1 bd
       -0.047860764 -0.006978435 0.008476053 -0.10217314
0003c0 db dd 4f 3e 7e 51 d2 3d 86 fd 87 3c 67 44 bb bd
       0.20299475 0.1026945 0.016600382 -0.09143906
0003d0 21 4d 19 be 3e 61 d1 bd 71 a0 22 3e cd b7 52 3d
       -0.14970829 -0.102236256 0.15881516 0.051444817
0003e0 97 71 a0 3d b5 9a 43 be 74 43 08 be 51 56 32 bd
       0.078341655 -0.19101985 -0.13306981 -0.04353935
0003f0 61 8a 0b 3d ee b4 20 3d b8 91 99 bd 1a 3a 4e bd
       0.034067515 0.039235048 -0.07498497 -0.05034838

de2.bias f4 [100]
000000 7a 50 8d 3c ec 02 b4 3d cb 76 c2 3a 77 7b ae 3d
       0.017250288 0.0878962 0.0014836428 0.08519643
000010 7f e7 c3 bc 60 ce 82 bc ef 92 96 bd d5 cb d2 bc
       -0.023914097 -0.015967548 -0.07352244 -0.02573196
000020 26 f5 0a 3e 7c 91 38 bc fe 1a 25 bd 27 bc 0e be
       0.13570079 -0.011265155 -0.040308945 -0.13938962
000030 08 cf 50 3d f2 d4 24 3e 23 b9 24 3e 49 a0 ee bd
       0.05097869 0.16096857 0.16086249 -0.11651666
000040 d5 69 dd bd d3 73 4e 3d 01 85 fc bd 39 79 16 3e
       -0.108112015 0.050403427 -0.12330056 0.1469468
000050 6d d0 88 bc 21 95 80 bc 3c 95 0a 3e ed f7 0c 3e
       -0.016700948 -0.01569611 0.13533491 0.13766451
000060 27 1a cc 3d a0 4a 43 3e a2 06 fe bd 6c fa 4a bd
       0.09965926 0.19071436 -0.12403609 -0.049555227
000070 fe 54 be bd 59 01 0b be 60 e1 18 be 01 fd 01 3e
       -0.09293555 -0.13574733 -0.14929724 0.1269417
000080 62 5c 4c bc ec 54 8b bc b6 34 d3 bd ca 4b b4 bd
       -0.012473198 -0.017008267 -0.10312788 -0.08803518
000090 80 c4 b2 bd ef 31 0f be 34 cd 35 3e 40 1c 32 ba
       -0.08728886 -0.13983892 0.1775406 -0.0006794371
0000a0 b4 9c c8 bc 1d c0 bb bc a5 2b 93 bd c5 2e 7f bd
       -0.024488784 -0.022918755 -0.07186059 -0.062300462
0000b0 03 4c e8 3d 52 4c 0e be 90 70 fa 3d 25 69 b6 bc
       0.11342623 -0.13896301 0.12228501 -0.022266934
0000c0 79 ae 04 be cf ee d4 bd 5f 3c 3d 3c 09 6d 35 3c
       -0.12957181 -0.103971116 0.011550038 0.011073359
0000d0 03 61 d2 3d 9f a4 fa bd 80 8c 17 3e 96 83 b3 3d
       0.1027241 -0.1223843 0.1479969 0.087653324
0000e0 5f 14 d1 bc 17 67 23 3e 58 6e 0d 3e d2 6a 8c bd
       -0.025522409 0.15957294 0.13811624 -0.06856312
0000f0 18 86 17 3e 95 de 32 be ce fd 57 bd ac 74 38 bc
       0.14797246 -0.17467721 -0.05273228 -0.0112582855
000100 43 bb 2c bd dc 93 1a be 32 f1 a6 bb a4 a6 89 3d
       -0.042170774 -0.15095466 -0.0050946707 0.06721237
000110 ba 5d dc bd d7 c3 47 bd 19 dd 29 be 4b f9 14 be
       -0.107600644 -0.04877075 -0.16588248 -0.14548223
000120 eb 8e e6 3d 71 7c c2 3d 58 b4 d0 3d d1 c7 14 be
       0.11257728 0.094963916 0.10190648 -0.14529349
000130 5a b9 87 3d 11 93 25 3d 35 7c 0f be 71 c7 a4 3d
       0.0662715 0.040423457 -0.14012225 0.08045853
000140 72 85 96 3c 58 b6 e9 bb c1 87 28 be f6 b1 bc 3d
       0.018374179 -0.007132333 -0.16458036 0.09213631
000150 da 58 e0 bc 16 73 18 be c6 7e a0 3c 23 a8 0e be
       -0.027386118 -0.14887652 0.0195917 -0.13931327
000160 2c f8 48 3c d0 30 9e 3d 65 1c b8 3d 89 7e e9 3c
       0.0122662 0.07724154 0.08989791 0.02850272
000170 25 b5 a2 3d bd 03 0f bd 3d 47 06 bd 6e 1f b6 3d
       0.07944707 -0.034915674 -0.032782782 0.088927135
000180 88 2a bf 3d 3c e2 40 be 59 f3 15 3d bd a1 99 bb
       0.09334284 -0.18836302 0.036609028 -0.00468847
